…
0 projection items activated
Using data from preloaded Raw for 48 events and 1125 original time points ...
0 bad epochs dropped
Used Annotations descriptions: ['feet', 'left_hand', 'right_hand', 'tongue']
Adding metadata with 4 columns
48 matching events found
No baseline correction applied
0 projection items activated
Using data from preloaded Raw for 48 events and 1125 original time points ...
0 bad epochs dropped
<class 'braindecode.classifier.EEGClassifier'>[uninitialized](
  module=EEGNetv4(
    (ensuredims): Ensure4d()
    (dimshuffle): Expression(expression=_transpose_to_b_1_c_0) 
    (conv_temporal): Conv2d(1, 8, kernel_size=(1, 64), stride=(1, 1), padding=(0, 32), bias=False)
    (bnorm_temporal): BatchNorm2d(8, eps=0.001, momentum=0.01, affine=True, track_running_stats=True)
    (conv_spatial): Conv2dWithConstraint(8, 16, kernel_size=(22, 1), stride=(1, 1), groups=8, bias=False)
    (bnorm_1): BatchNorm2d(16, eps=0.001, momentum=0.01, affine=True, track_running_stats=True)
    (elu_1): Expression(expression=elu) 
    (pool_1): AvgPool2d(kernel_size=(1, 4), stride=(1, 4), padding=0)
    (drop_1): Dropout(p=0.25, inplace=False)
    (conv_separable_depth): Conv2d(16, 16, kernel_size=(1, 16), stride=(1, 1), padding=(0, 8), groups=16, bias=False)
    (conv_separable_point): Conv2d(16, 16, kernel_size=(1, 1), stride=(1, 1), bias=False)
    (bnorm_2): BatchNorm2d(16, eps=0.001, momentum=0.01, affine=True, track_running_stats=True)
    (elu_2): Expression(expression=elu) 
    (pool_2): AvgPool2d(kernel_size=(1, 8), stride=(1, 8), padding=0)
    (drop_2): Dropout(p=0.25, inplace=False)
    (conv_classifier): Conv2d(16, 4, kernel_size=(1, 35), stride=(1, 1))
    (softmax): LogSoftmax(dim=1)
    (permute_back): Expression(expression=_transpose_1_0) 
    (squeeze): Expression(expression=squeeze_final_output) 
  ),
)
<class 'braindecode.classifier.EEGClassifier'>[uninitialized](
  module=EEGNetv4(
    (ensuredims): Ensure4d()
    (dimshuffle): Expression(expression=_transpose_to_b_1_c_0) 
    (conv_temporal): Conv2d(1, 8, kernel_size=(1, 64), stride=(1, 1), padding=(0, 32), bias=False)
    (bnorm_temporal): BatchNorm2d(8, eps=0.001, momentum=0.01, affine=True, track_running_stats=True)
    (conv_spatial): Conv2dWithConstraint(8, 16, kernel_size=(22, 1), stride=(1, 1), groups=8, bias=False)
    (bnorm_1): BatchNorm2d(16, eps=0.001, momentum=0.01, affine=True, track_running_stats=True)
    (elu_1): Expression(expression=elu) 
    (pool_1): AvgPool2d(kernel_size=(1, 4), stride=(1, 4), padding=0)
    (drop_1): Dropout(p=0.25, inplace=False)
    (conv_separable_depth): Conv2d(16, 16, kernel_size=(1, 16), stride=(1, 1), padding=(0, 8), groups=16, bias=False)
    (conv_separable_point): Conv2d(16, 16, kernel_size=(1, 1), stride=(1, 1), bias=False)
    (bnorm_2): BatchNorm2d(16, eps=0.001, momentum=0.01, affine=True, track_running_stats=True)
    (elu_2): Expression(expression=elu) 
    (pool_2): AvgPool2d(kernel_size=(1, 8), stride=(1, 8), padding=0)
    (drop_2): Dropout(p=0.25, inplace=False)
    (conv_classifier): Conv2d(16, 4, kernel_size=(1, 35), stride=(1, 1))
    (softmax): LogSoftmax(dim=1)
    (permute_back): Expression(expression=_transpose_1_0) 
    (squeeze): Expression(expression=squeeze_final_output) 
  ),
)
<class 'braindecode.classifier.EEGClassifier'>[uninitialized](
  module=EEGNetv4(
    (ensuredims): Ensure4d()
    (dimshuffle): Expression(expression=_transpose_to_b_1_c_0) 
    (conv_temporal): Conv2d(1, 8, kernel_size=(1, 64), stride=(1, 1), padding=(0, 32), bias=False)
    (bnorm_temporal): BatchNorm2d(8, eps=0.001, momentum=0.01, affine=True, track_running_stats=True)
    (conv_spatial): Conv2dWithConstraint(8, 16, kernel_size=(22, 1), stride=(1, 1), groups=8, bias=False)
    (bnorm_1): BatchNorm2d(16, eps=0.001, momentum=0.01, affine=True, track_running_stats=True)
    (elu_1): Expression(expression=elu) 
    (pool_1): AvgPool2d(kernel_size=(1, 4), stride=(1, 4), padding=0)
    (drop_1): Dropout(p=0.25, inplace=False)
    (conv_separable_depth): Conv2d(16, 16, kernel_size=(1, 16), stride=(1, 1), padding=(0, 8), groups=16, bias=False)
    (conv_separable_point): Conv2d(16, 16, kernel_size=(1, 1), stride=(1, 1), bias=False)
    (bnorm_2): BatchNorm2d(16, eps=0.001, momentum=0.01, affine=True, track_running_stats=True)
    (elu_2): Expression(expression=elu) 
    (pool_2): AvgPool2d(kernel_size=(1, 8), stride=(1, 8), padding=0)
    (drop_2): Dropout(p=0.25, inplace=False)
    (conv_classifier): Conv2d(16, 4, kernel_size=(1, 35), stride=(1, 1))
    (softmax): LogSoftmax(dim=1)
    (permute_back): Expression(expression=_transpose_1_0) 
    (squeeze): Expression(expression=squeeze_final_output) 
  ),
)
<class 'braindecode.classifier.EEGClassifier'>[uninitialized](
  module=EEGNetv4(
    (ensuredims): Ensure4d()
    (dimshuffle): Expression(expression=_transpose_to_b_1_c_0) 
    (conv_temporal): Conv2d(1, 8, kernel_size=(1, 64), stride=(1, 1), padding=(0, 32), bias=False)
    (bnorm_temporal): BatchNorm2d(8, eps=0.001, momentum=0.01, affine=True, track_running_stats=True)
    (conv_spatial): Conv2dWithConstraint(8, 16, kernel_size=(22, 1), stride=(1, 1), groups=8, bias=False)
    (bnorm_1): BatchNorm2d(16, eps=0.001, momentum=0.01, affine=True, track_running_stats=True)
    (elu_1): Expression(expression=elu) 
    (pool_1): AvgPool2d(kernel_size=(1, 4), stride=(1, 4), padding=0)
    (drop_1): Dropout(p=0.25, inplace=False)
    (conv_separable_depth): Conv2d(16, 16, kernel_size=(1, 16), stride=(1, 1), padding=(0, 8), groups=16, bias=False)
    (conv_separable_point): Conv2d(16, 16, kernel_size=(1, 1), stride=(1, 1), bias=False)
    (bnorm_2): BatchNorm2d(16, eps=0.001, momentum=0.01, affine=True, track_running_stats=True)
    (elu_2): Expression(expression=elu) 
    (pool_2): AvgPool2d(kernel_size=(1, 8), stride=(1, 8), padding=0)
    (drop_2): Dropout(p=0.25, inplace=False)
    (conv_classifier): Conv2d(16, 4, kernel_size=(1, 35), stride=(1, 1))
    (softmax): LogSoftmax(dim=1)
    (permute_back): Expression(expression=_transpose_1_0) 
    (squeeze): Expression(expression=squeeze_final_output) 
  ),
)
<class 'braindecode.classifier.EEGClassifier'>[uninitialized](
  module=EEGNetv4(
    (ensuredims): Ensure4d()
    (dimshuffle): Expression(expression=_transpose_to_b_1_c_0) 
    (conv_temporal): Conv2d(1, 8, kernel_size=(1, 64), stride=(1, 1), padding=(0, 32), bias=False)
    (bnorm_temporal): BatchNorm2d(8, eps=0.001, momentum=0.01, affine=True, track_running_stats=True)
    (conv_spatial): Conv2dWithConstraint(8, 16, kernel_size=(22, 1), stride=(1, 1), groups=8, bias=False)
    (bnorm_1): BatchNorm2d(16, eps=0.001, momentum=0.01, affine=True, track_running_stats=True)
    (elu_1): Expression(expression=elu) 
    (pool_1): AvgPool2d(kernel_size=(1, 4), stride=(1, 4), padding=0)
    (drop_1): Dropout(p=0.25, inplace=False)
    (conv_separable_depth): Conv2d(16, 16, kernel_size=(1, 16), stride=(1, 1), padding=(0, 8), groups=16, bias=False)
    (conv_separable_point): Conv2d(16, 16, kernel_size=(1, 1), stride=(1, 1), bias=False)
    (bnorm_2): BatchNorm2d(16, eps=0.001, momentum=0.01, affine=True, track_running_stats=True)
    (elu_2): Expression(expression=elu) 
    (pool_2): AvgPool2d(kernel_size=(1, 8), stride=(1, 8), padding=0)
    (drop_2): Dropout(p=0.25, inplace=False)
    (conv_classifier): Conv2d(16, 4, kernel_size=(1, 35), stride=(1, 1))
    (softmax): LogSoftmax(dim=1)
    (permute_back): Expression(expression=_transpose_1_0) 
    (squeeze): Expression(expression=squeeze_final_output) 
  ),
)
<class 'braindecode.classifier.EEGClassifier'>[uninitialized](
  module=EEGNetv4(
    (ensuredims): Ensure4d()
    (dimshuffle): Expression(expression=_transpose_to_b_1_c_0) 
    (conv_temporal): Conv2d(1, 8, kernel_size=(1, 64), stride=(1, 1), padding=(0, 32), bias=False)
    (bnorm_temporal): BatchNorm2d(8, eps=0.001, momentum=0.01, affine=True, track_running_stats=True)
    (conv_spatial): Conv2dWithConstraint(8, 16, kernel_size=(22, 1), stride=(1, 1), groups=8, bias=False)
    (bnorm_1): BatchNorm2d(16, eps=0.001, momentum=0.01, affine=True, track_running_stats=True)
    (elu_1): Expression(expression=elu) 
    (pool_1): AvgPool2d(kernel_size=(1, 4), stride=(1, 4), padding=0)
    (drop_1): Dropout(p=0.25, inplace=False)
    (conv_separable_depth): Conv2d(16, 16, kernel_size=(1, 16), stride=(1, 1), padding=(0, 8), groups=16, bias=False)
    (conv_separable_point): Conv2d(16, 16, kernel_size=(1, 1), stride=(1, 1), bias=False)
    (bnorm_2): BatchNorm2d(16, eps=0.001, momentum=0.01, affine=True, track_running_stats=True)
    (elu_2): Expression(expression=elu) 
    (pool_2): AvgPool2d(kernel_size=(1, 8), stride=(1, 8), padding=0)
    (drop_2): Dropout(p=0.25, inplace=False)
    (conv_classifier): Conv2d(16, 4, kernel_size=(1, 35), stride=(1, 1))
    (softmax): LogSoftmax(dim=1)
    (permute_back): Expression(expression=_transpose_1_0) 
    (squeeze): Expression(expression=squeeze_final_output) 
  ),
)
<class 'braindecode.classifier.EEGClassifier'>[uninitialized](
  module=EEGNetv4(
    (ensuredims): Ensure4d()
    (dimshuffle): Expression(expression=_transpose_to_b_1_c_0) 
    (conv_temporal): Conv2d(1, 8, kernel_size=(1, 64), stride=(1, 1), padding=(0, 32), bias=False)
    (bnorm_temporal): BatchNorm2d(8, eps=0.001, momentum=0.01, affine=True, track_running_stats=True)
    (conv_spatial): Conv2dWithConstraint(8, 16, kernel_size=(22, 1), stride=(1, 1), groups=8, bias=False)
    (bnorm_1): BatchNorm2d(16, eps=0.001, momentum=0.01, affine=True, track_running_stats=True)
    (elu_1): Expression(expression=elu) 
    (pool_1): AvgPool2d(kernel_size=(1, 4), stride=(1, 4), padding=0)
    (drop_1): Dropout(p=0.25, inplace=False)
    (conv_separable_depth): Conv2d(16, 16, kernel_size=(1, 16), stride=(1, 1), padding=(0, 8), groups=16, bias=False)
    (conv_separable_point): Conv2d(16, 16, kernel_size=(1, 1), stride=(1, 1), bias=False)
    (bnorm_2): BatchNorm2d(16, eps=0.001, momentum=0.01, affine=True, track_running_stats=True)
    (elu_2): Expression(expression=elu) 
    (pool_2): AvgPool2d(kernel_size=(1, 8), stride=(1, 8), padding=0)
    (drop_2): Dropout(p=0.25, inplace=False)
    (conv_classifier): Conv2d(16, 4, kernel_size=(1, 35), stride=(1, 1))
    (softmax): LogSoftmax(dim=1)
    (permute_back): Expression(expression=_transpose_1_0) 
    (squeeze): Expression(expression=squeeze_final_output) 
  ),
)
<class 'braindecode.classifier.EEGClassifier'>[uninitialized](
  module=EEGNetv4(
    (ensuredims): Ensure4d()
    (dimshuffle): Expression(expression=_transpose_to_b_1_c_0) 
    (conv_temporal): Conv2d(1, 8, kernel_size=(1, 64), stride=(1, 1), padding=(0, 32), bias=False)
    (bnorm_temporal): BatchNorm2d(8, eps=0.001, momentum=0.01, affine=True, track_running_stats=True)
    (conv_spatial): Conv2dWithConstraint(8, 16, kernel_size=(22, 1), stride=(1, 1), groups=8, bias=False)
    (bnorm_1): BatchNorm2d(16, eps=0.001, momentum=0.01, affine=True, track_running_stats=True)
    (elu_1): Expression(expression=elu) 
    (pool_1): AvgPool2d(kernel_size=(1, 4), stride=(1, 4), padding=0)
    (drop_1): Dropout(p=0.25, inplace=False)
    (conv_separable_depth): Conv2d(16, 16, kernel_size=(1, 16), stride=(1, 1), padding=(0, 8), groups=16, bias=False)
    (conv_separable_point): Conv2d(16, 16, kernel_size=(1, 1), stride=(1, 1), bias=False)
    (bnorm_2): BatchNorm2d(16, eps=0.001, momentum=0.01, affine=True, track_running_stats=True)
    (elu_2): Expression(expression=elu) 
    (pool_2): AvgPool2d(kernel_size=(1, 8), stride=(1, 8), padding=0)
    (drop_2): Dropout(p=0.25, inplace=False)
    (conv_classifier): Conv2d(16, 4, kernel_size=(1, 35), stride=(1, 1))
    (softmax): LogSoftmax(dim=1)
    (permute_back): Expression(expression=_transpose_1_0) 
    (squeeze): Expression(expression=squeeze_final_output) 
  ),
)
<class 'braindecode.classifier.EEGClassifier'>[uninitialized](
  module=EEGNetv4(
    (ensuredims): Ensure4d()
    (dimshuffle): Expression(expression=_transpose_to_b_1_c_0) 
    (conv_temporal): Conv2d(1, 8, kernel_size=(1, 64), stride=(1, 1), padding=(0, 32), bias=False)
    (bnorm_temporal): BatchNorm2d(8, eps=0.001, momentum=0.01, affine=True, track_running_stats=True)
    (conv_spatial): Conv2dWithConstraint(8, 16, kernel_size=(22, 1), stride=(1, 1), groups=8, bias=False)
    (bnorm_1): BatchNorm2d(16, eps=0.001, momentum=0.01, affine=True, track_running_stats=True)
    (elu_1): Expression(expression=elu) 
    (pool_1): AvgPool2d(kernel_size=(1, 4), stride=(1, 4), padding=0)
    (drop_1): Dropout(p=0.25, inplace=False)
    (conv_separable_depth): Conv2d(16, 16, kernel_size=(1, 16), stride=(1, 1), padding=(0, 8), groups=16, bias=False)
    (conv_separable_point): Conv2d(16, 16, kernel_size=(1, 1), stride=(1, 1), bias=False)
    (bnorm_2): BatchNorm2d(16, eps=0.001, momentum=0.01, affine=True, track_running_stats=True)
    (elu_2): Expression(expression=elu) 
    (pool_2): AvgPool2d(kernel_size=(1, 8), stride=(1, 8), padding=0)
    (drop_2): Dropout(p=0.25, inplace=False)
    (conv_classifier): Conv2d(16, 4, kernel_size=(1, 35), stride=(1, 1))
    (softmax): LogSoftmax(dim=1)
    (permute_back): Expression(expression=_transpose_1_0) 
    (squeeze): Expression(expression=squeeze_final_output) 
  ),
)
<class 'braindecode.classifier.EEGClassifier'>[uninitialized](
  module=EEGNetv4(
    (ensuredims): Ensure4d()
    (dimshuffle): Expression(expression=_transpose_to_b_1_c_0) 
    (conv_temporal): Conv2d(1, 8, kernel_size=(1, 64), stride=(1, 1), padding=(0, 32), bias=False)
    (bnorm_temporal): BatchNorm2d(8, eps=0.001, momentum=0.01, affine=True, track_running_stats=True)
    (conv_spatial): Conv2dWithConstraint(8, 16, kernel_size=(22, 1), stride=(1, 1), groups=8, bias=False)
    (bnorm_1): BatchNorm2d(16, eps=0.001, momentum=0.01, affine=True, track_running_stats=True)
    (elu_1): Expression(expression=elu) 
    (pool_1): AvgPool2d(kernel_size=(1, 4), stride=(1, 4), padding=0)
    (drop_1): Dropout(p=0.25, inplace=False)
    (conv_separable_depth): Conv2d(16, 16, kernel_size=(1, 16), stride=(1, 1), padding=(0, 8), groups=16, bias=False)
    (conv_separable_point): Conv2d(16, 16, kernel_size=(1, 1), stride=(1, 1), bias=False)
    (bnorm_2): BatchNorm2d(16, eps=0.001, momentum=0.01, affine=True, track_running_stats=True)
    (elu_2): Expression(expression=elu) 
    (pool_2): AvgPool2d(kernel_size=(1, 8), stride=(1, 8), padding=0)
    (drop_2): Dropout(p=0.25, inplace=False)
    (conv_classifier): Conv2d(16, 4, kernel_size=(1, 35), stride=(1, 1))
    (softmax): LogSoftmax(dim=1)
    (permute_back): Expression(expression=_transpose_1_0) 
    (squeeze): Expression(expression=squeeze_final_output) 
  ),
)
<class 'braindecode.classifier.EEGClassifier'>[uninitialized](
  module=EEGNetv4(
    (ensuredims): Ensure4d()
    (dimshuffle): Expression(expression=_transpose_to_b_1_c_0) 
    (conv_temporal): Conv2d(1, 8, kernel_size=(1, 64), stride=(1, 1), padding=(0, 32), bias=False)
    (bnorm_temporal): BatchNorm2d(8, eps=0.001, momentum=0.01, affine=True, track_running_stats=True)
    (conv_spatial): Conv2dWithConstraint(8, 16, kernel_size=(22, 1), stride=(1, 1), groups=8, bias=False)
    (bnorm_1): BatchNorm2d(16, eps=0.001, momentum=0.01, affine=True, track_running_stats=True)
    (elu_1): Expression(expression=elu) 
    (pool_1): AvgPool2d(kernel_size=(1, 4), stride=(1, 4), padding=0)
    (drop_1): Dropout(p=0.25, inplace=False)
    (conv_separable_depth): Conv2d(16, 16, kernel_size=(1, 16), stride=(1, 1), padding=(0, 8), groups=16, bias=False)
    (conv_separable_point): Conv2d(16, 16, kernel_size=(1, 1), stride=(1, 1), bias=False)
    (bnorm_2): BatchNorm2d(16, eps=0.001, momentum=0.01, affine=True, track_running_stats=True)
    (elu_2): Expression(expression=elu) 
    (pool_2): AvgPool2d(kernel_size=(1, 8), stride=(1, 8), padding=0)
    (drop_2): Dropout(p=0.25, inplace=False)
    (conv_classifier): Conv2d(16, 4, kernel_size=(1, 35), stride=(1, 1))
    (softmax): LogSoftmax(dim=1)
    (permute_back): Expression(expression=_transpose_1_0) 
    (squeeze): Expression(expression=squeeze_final_output) 
  ),
)
<class 'braindecode.classifier.EEGClassifier'>[uninitialized](
  module=EEGNetv4(
    (ensuredims): Ensure4d()
    (dimshuffle): Expression(expression=_transpose_to_b_1_c_0) 
    (conv_temporal): Conv2d(1, 8, kernel_size=(1, 64), stride=(1, 1), padding=(0, 32), bias=False)
    (bnorm_temporal): BatchNorm2d(8, eps=0.001, momentum=0.01, affine=True, track_running_stats=True)
    (conv_spatial): Conv2dWithConstraint(8, 16, kernel_size=(22, 1), stride=(1, 1), groups=8, bias=False)
    (bnorm_1): BatchNorm2d(16, eps=0.001, momentum=0.01, affine=True, track_running_stats=True)
    (elu_1): Expression(expression=elu) 
    (pool_1): AvgPool2d(kernel_size=(1, 4), stride=(1, 4), padding=0)
    (drop_1): Dropout(p=0.25, inplace=False)
    (conv_separable_depth): Conv2d(16, 16, kernel_size=(1, 16), stride=(1, 1), padding=(0, 8), groups=16, bias=False)
    (conv_separable_point): Conv2d(16, 16, kernel_size=(1, 1), stride=(1, 1), bias=False)
    (bnorm_2): BatchNorm2d(16, eps=0.001, momentum=0.01, affine=True, track_running_stats=True)
    (elu_2): Expression(expression=elu) 
    (pool_2): AvgPool2d(kernel_size=(1, 8), stride=(1, 8), padding=0)
    (drop_2): Dropout(p=0.25, inplace=False)
    (conv_classifier): Conv2d(16, 4, kernel_size=(1, 35), stride=(1, 1))
    (softmax): LogSoftmax(dim=1)
    (permute_back): Expression(expression=_transpose_1_0) 
    (squeeze): Expression(expression=squeeze_final_output) 
  ),
)
<class 'braindecode.classifier.EEGClassifier'>[uninitialized](
  module=EEGNetv4(
    (ensuredims): Ensure4d()
    (dimshuffle): Expression(expression=_transpose_to_b_1_c_0) 
    (conv_temporal): Conv2d(1, 8, kernel_size=(1, 64), stride=(1, 1), padding=(0, 32), bias=False)
    (bnorm_temporal): BatchNorm2d(8, eps=0.001, momentum=0.01, affine=True, track_running_stats=True)
    (conv_spatial): Conv2dWithConstraint(8, 16, kernel_size=(22, 1), stride=(1, 1), groups=8, bias=False)
    (bnorm_1): BatchNorm2d(16, eps=0.001, momentum=0.01, affine=True, track_running_stats=True)
    (elu_1): Expression(expression=elu) 
    (pool_1): AvgPool2d(kernel_size=(1, 4), stride=(1, 4), padding=0)
    (drop_1): Dropout(p=0.25, inplace=False)
    (conv_separable_depth): Conv2d(16, 16, kernel_size=(1, 16), stride=(1, 1), padding=(0, 8), groups=16, bias=False)
    (conv_separable_point): Conv2d(16, 16, kernel_size=(1, 1), stride=(1, 1), bias=False)
    (bnorm_2): BatchNorm2d(16, eps=0.001, momentum=0.01, affine=True, track_running_stats=True)
    (elu_2): Expression(expression=elu) 
    (pool_2): AvgPool2d(kernel_size=(1, 8), stride=(1, 8), padding=0)
    (drop_2): Dropout(p=0.25, inplace=False)
    (conv_classifier): Conv2d(16, 4, kernel_size=(1, 35), stride=(1, 1))
    (softmax): LogSoftmax(dim=1)
    (permute_back): Expression(expression=_transpose_1_0) 
    (squeeze): Expression(expression=squeeze_final_output) 
  ),
)
<class 'braindecode.classifier.EEGClassifier'>[uninitialized](
  module=EEGNetv4(
    (ensuredims): Ensure4d()
    (dimshuffle): Expression(expression=_transpose_to_b_1_c_0) 
    (conv_temporal): Conv2d(1, 8, kernel_size=(1, 64), stride=(1, 1), padding=(0, 32), bias=False)
    (bnorm_temporal): BatchNorm2d(8, eps=0.001, momentum=0.01, affine=True, track_running_stats=True)
    (conv_spatial): Conv2dWithConstraint(8, 16, kernel_size=(22, 1), stride=(1, 1), groups=8, bias=False)
    (bnorm_1): BatchNorm2d(16, eps=0.001, momentum=0.01, affine=True, track_running_stats=True)
    (elu_1): Expression(expression=elu) 
    (pool_1): AvgPool2d(kernel_size=(1, 4), stride=(1, 4), padding=0)
    (drop_1): Dropout(p=0.25, inplace=False)
    (conv_separable_depth): Conv2d(16, 16, kernel_size=(1, 16), stride=(1, 1), padding=(0, 8), groups=16, bias=False)
    (conv_separable_point): Conv2d(16, 16, kernel_size=(1, 1), stride=(1, 1), bias=False)
    (bnorm_2): BatchNorm2d(16, eps=0.001, momentum=0.01, affine=True, track_running_stats=True)
    (elu_2): Expression(expression=elu) 
    (pool_2): AvgPool2d(kernel_size=(1, 8), stride=(1, 8), padding=0)
    (drop_2): Dropout(p=0.25, inplace=False)
    (conv_classifier): Conv2d(16, 4, kernel_size=(1, 35), stride=(1, 1))
    (softmax): LogSoftmax(dim=1)
    (permute_back): Expression(expression=_transpose_1_0) 
    (squeeze): Expression(expression=squeeze_final_output) 
  ),
)
<class 'braindecode.classifier.EEGClassifier'>[uninitialized](
  module=EEGNetv4(
    (ensuredims): Ensure4d()
    (dimshuffle): Expression(expression=_transpose_to_b_1_c_0) 
    (conv_temporal): Conv2d(1, 8, kernel_size=(1, 64), stride=(1, 1), padding=(0, 32), bias=False)
    (bnorm_temporal): BatchNorm2d(8, eps=0.001, momentum=0.01, affine=True, track_running_stats=True)
    (conv_spatial): Conv2dWithConstraint(8, 16, kernel_size=(22, 1), stride=(1, 1), groups=8, bias=False)
    (bnorm_1): BatchNorm2d(16, eps=0.001, momentum=0.01, affine=True, track_running_stats=True)
    (elu_1): Expression(expression=elu) 
    (pool_1): AvgPool2d(kernel_size=(1, 4), stride=(1, 4), padding=0)
    (drop_1): Dropout(p=0.25, inplace=False)
    (conv_separable_depth): Conv2d(16, 16, kernel_size=(1, 16), stride=(1, 1), padding=(0, 8), groups=16, bias=False)
    (conv_separable_point): Conv2d(16, 16, kernel_size=(1, 1), stride=(1, 1), bias=False)
    (bnorm_2): BatchNorm2d(16, eps=0.001, momentum=0.01, affine=True, track_running_stats=True)
    (elu_2): Expression(expression=elu) 
    (pool_2): AvgPool2d(kernel_size=(1, 8), stride=(1, 8), padding=0)
    (drop_2): Dropout(p=0.25, inplace=False)
    (conv_classifier): Conv2d(16, 4, kernel_size=(1, 35), stride=(1, 1))
    (softmax): LogSoftmax(dim=1)
    (permute_back): Expression(expression=_transpose_1_0) 
    (squeeze): Expression(expression=squeeze_final_output) 
  ),
)
<class 'braindecode.classifier.EEGClassifier'>[uninitialized](
  module=EEGNetv4(
    (ensuredims): Ensure4d()
    (dimshuffle): Expression(expression=_transpose_to_b_1_c_0) 
    (conv_temporal): Conv2d(1, 8, kernel_size=(1, 64), stride=(1, 1), padding=(0, 32), bias=False)
    (bnorm_temporal): BatchNorm2d(8, eps=0.001, momentum=0.01, affine=True, track_running_stats=True)
    (conv_spatial): Conv2dWithConstraint(8, 16, kernel_size=(22, 1), stride=(1, 1), groups=8, bias=False)
    (bnorm_1): BatchNorm2d(16, eps=0.001, momentum=0.01, affine=True, track_running_stats=True)
    (elu_1): Expression(expression=elu) 
    (pool_1): AvgPool2d(kernel_size=(1, 4), stride=(1, 4), padding=0)
    (drop_1): Dropout(p=0.25, inplace=False)
    (conv_separable_depth): Conv2d(16, 16, kernel_size=(1, 16), stride=(1, 1), padding=(0, 8), groups=16, bias=False)
    (conv_separable_point): Conv2d(16, 16, kernel_size=(1, 1), stride=(1, 1), bias=False)
    (bnorm_2): BatchNorm2d(16, eps=0.001, momentum=0.01, affine=True, track_running_stats=True)
    (elu_2): Expression(expression=elu) 
    (pool_2): AvgPool2d(kernel_size=(1, 8), stride=(1, 8), padding=0)
    (drop_2): Dropout(p=0.25, inplace=False)
    (conv_classifier): Conv2d(16, 4, kernel_size=(1, 35), stride=(1, 1))
    (softmax): LogSoftmax(dim=1)
    (permute_back): Expression(expression=_transpose_1_0) 
    (squeeze): Expression(expression=squeeze_final_output) 
  ),
)
<class 'braindecode.classifier.EEGClassifier'>[uninitialized](
  module=EEGNetv4(
    (ensuredims): Ensure4d()
    (dimshuffle): Expression(expression=_transpose_to_b_1_c_0) 
    (conv_temporal): Conv2d(1, 8, kernel_size=(1, 64), stride=(1, 1), padding=(0, 32), bias=False)
    (bnorm_temporal): BatchNorm2d(8, eps=0.001, momentum=0.01, affine=True, track_running_stats=True)
    (conv_spatial): Conv2dWithConstraint(8, 16, kernel_size=(22, 1), stride=(1, 1), groups=8, bias=False)
    (bnorm_1): BatchNorm2d(16, eps=0.001, momentum=0.01, affine=True, track_running_stats=True)
    (elu_1): Expression(expression=elu) 
    (pool_1): AvgPool2d(kernel_size=(1, 4), stride=(1, 4), padding=0)
    (drop_1): Dropout(p=0.25, inplace=False)
    (conv_separable_depth): Conv2d(16, 16, kernel_size=(1, 16), stride=(1, 1), padding=(0, 8), groups=16, bias=False)
    (conv_separable_point): Conv2d(16, 16, kernel_size=(1, 1), stride=(1, 1), bias=False)
    (bnorm_2): BatchNorm2d(16, eps=0.001, momentum=0.01, affine=True, track_running_stats=True)
    (elu_2): Expression(expression=elu) 
    (pool_2): AvgPool2d(kernel_size=(1, 8), stride=(1, 8), padding=0)
    (drop_2): Dropout(p=0.25, inplace=False)
    (conv_classifier): Conv2d(16, 4, kernel_size=(1, 35), stride=(1, 1))
    (softmax): LogSoftmax(dim=1)
    (permute_back): Expression(expression=_transpose_1_0) 
    (squeeze): Expression(expression=squeeze_final_output) 
  ),
)
<class 'braindecode.classifier.EEGClassifier'>[uninitialized](
  module=EEGNetv4(
    (ensuredims): Ensure4d()
    (dimshuffle): Expression(expression=_transpose_to_b_1_c_0) 
    (conv_temporal): Conv2d(1, 8, kernel_size=(1, 64), stride=(1, 1), padding=(0, 32), bias=False)
    (bnorm_temporal): BatchNorm2d(8, eps=0.001, momentum=0.01, affine=True, track_running_stats=True)
    (conv_spatial): Conv2dWithConstraint(8, 16, kernel_size=(22, 1), stride=(1, 1), groups=8, bias=False)
    (bnorm_1): BatchNorm2d(16, eps=0.001, momentum=0.01, affine=True, track_running_stats=True)
    (elu_1): Expression(expression=elu) 
    (pool_1): AvgPool2d(kernel_size=(1, 4), stride=(1, 4), padding=0)
    (drop_1): Dropout(p=0.25, inplace=False)
    (conv_separable_depth): Conv2d(16, 16, kernel_size=(1, 16), stride=(1, 1), padding=(0, 8), groups=16, bias=False)
    (conv_separable_point): Conv2d(16, 16, kernel_size=(1, 1), stride=(1, 1), bias=False)
    (bnorm_2): BatchNorm2d(16, eps=0.001, momentum=0.01, affine=True, track_running_stats=True)
    (elu_2): Expression(expression=elu) 
    (pool_2): AvgPool2d(kernel_size=(1, 8), stride=(1, 8), padding=0)
    (drop_2): Dropout(p=0.25, inplace=False)
    (conv_classifier): Conv2d(16, 4, kernel_size=(1, 35), stride=(1, 1))
    (softmax): LogSoftmax(dim=1)
    (permute_back): Expression(expression=_transpose_1_0) 
    (squeeze): Expression(expression=squeeze_final_output) 
  ),
)
<class 'braindecode.classifier.EEGClassifier'>[uninitialized](
  module=EEGNetv4(
    (ensuredims): Ensure4d()
    (dimshuffle): Expression(expression=_transpose_to_b_1_c_0) 
    (conv_temporal): Conv2d(1, 8, kernel_size=(1, 64), stride=(1, 1), padding=(0, 32), bias=False)
    (bnorm_temporal): BatchNorm2d(8, eps=0.001, momentum=0.01, affine=True, track_running_stats=True)
    (conv_spatial): Conv2dWithConstraint(8, 16, kernel_size=(22, 1), stride=(1, 1), groups=8, bias=False)
    (bnorm_1): BatchNorm2d(16, eps=0.001, momentum=0.01, affine=True, track_running_stats=True)
    (elu_1): Expression(expression=elu) 
    (pool_1): AvgPool2d(kernel_size=(1, 4), stride=(1, 4), padding=0)
    (drop_1): Dropout(p=0.25, inplace=False)
    (conv_separable_depth): Conv2d(16, 16, kernel_size=(1, 16), stride=(1, 1), padding=(0, 8), groups=16, bias=False)
    (conv_separable_point): Conv2d(16, 16, kernel_size=(1, 1), stride=(1, 1), bias=False)
    (bnorm_2): BatchNorm2d(16, eps=0.001, momentum=0.01, affine=True, track_running_stats=True)
    (elu_2): Expression(expression=elu) 
    (pool_2): AvgPool2d(kernel_size=(1, 8), stride=(1, 8), padding=0)
    (drop_2): Dropout(p=0.25, inplace=False)
    (conv_classifier): Conv2d(16, 4, kernel_size=(1, 35), stride=(1, 1))
    (softmax): LogSoftmax(dim=1)
    (permute_back): Expression(expression=_transpose_1_0) 
    (squeeze): Expression(expression=squeeze_final_output) 
  ),
)
<class 'braindecode.classifier.EEGClassifier'>[uninitialized](
  module=EEGNetv4(
    (ensuredims): Ensure4d()
    (dimshuffle): Expression(expression=_transpose_to_b_1_c_0) 
    (conv_temporal): Conv2d(1, 8, kernel_size=(1, 64), stride=(1, 1), padding=(0, 32), bias=False)
    (bnorm_temporal): BatchNorm2d(8, eps=0.001, momentum=0.01, affine=True, track_running_stats=True)
    (conv_spatial): Conv2dWithConstraint(8, 16, kernel_size=(22, 1), stride=(1, 1), groups=8, bias=False)
    (bnorm_1): BatchNorm2d(16, eps=0.001, momentum=0.01, affine=True, track_running_stats=True)
    (elu_1): Expression(expression=elu) 
    (pool_1): AvgPool2d(kernel_size=(1, 4), stride=(1, 4), padding=0)
    (drop_1): Dropout(p=0.25, inplace=False)
    (conv_separable_depth): Conv2d(16, 16, kernel_size=(1, 16), stride=(1, 1), padding=(0, 8), groups=16, bias=False)
    (conv_separable_point): Conv2d(16, 16, kernel_size=(1, 1), stride=(1, 1), bias=False)
    (bnorm_2): BatchNorm2d(16, eps=0.001, momentum=0.01, affine=True, track_running_stats=True)
    (elu_2): Expression(expression=elu) 
    (pool_2): AvgPool2d(kernel_size=(1, 8), stride=(1, 8), padding=0)
    (drop_2): Dropout(p=0.25, inplace=False)
    (conv_classifier): Conv2d(16, 4, kernel_size=(1, 35), stride=(1, 1))
    (softmax): LogSoftmax(dim=1)
    (permute_back): Expression(expression=_transpose_1_0) 
    (squeeze): Expression(expression=squeeze_final_output) 
  ),
)
<class 'braindecode.classifier.EEGClassifier'>[uninitialized](
  module=EEGNetv4(
    (ensuredims): Ensure4d()
    (dimshuffle): Expression(expression=_transpose_to_b_1_c_0) 
    (conv_temporal): Conv2d(1, 8, kernel_size=(1, 64), stride=(1, 1), padding=(0, 32), bias=False)
    (bnorm_temporal): BatchNorm2d(8, eps=0.001, momentum=0.01, affine=True, track_running_stats=True)
    (conv_spatial): Conv2dWithConstraint(8, 16, kernel_size=(22, 1), stride=(1, 1), groups=8, bias=False)
    (bnorm_1): BatchNorm2d(16, eps=0.001, momentum=0.01, affine=True, track_running_stats=True)
    (elu_1): Expression(expression=elu) 
    (pool_1): AvgPool2d(kernel_size=(1, 4), stride=(1, 4), padding=0)
    (drop_1): Dropout(p=0.25, inplace=False)
    (conv_separable_depth): Conv2d(16, 16, kernel_size=(1, 16), stride=(1, 1), padding=(0, 8), groups=16, bias=False)
    (conv_separable_point): Conv2d(16, 16, kernel_size=(1, 1), stride=(1, 1), bias=False)
    (bnorm_2): BatchNorm2d(16, eps=0.001, momentum=0.01, affine=True, track_running_stats=True)
    (elu_2): Expression(expression=elu) 
    (pool_2): AvgPool2d(kernel_size=(1, 8), stride=(1, 8), padding=0)
    (drop_2): Dropout(p=0.25, inplace=False)
    (conv_classifier): Conv2d(16, 4, kernel_size=(1, 35), stride=(1, 1))
    (softmax): LogSoftmax(dim=1)
    (permute_back): Expression(expression=_transpose_1_0) 
    (squeeze): Expression(expression=squeeze_final_output) 
  ),
)
<class 'braindecode.classifier.EEGClassifier'>[uninitialized](
  module=EEGNetv4(
    (ensuredims): Ensure4d()
    (dimshuffle): Expression(expression=_transpose_to_b_1_c_0) 
    (conv_temporal): Conv2d(1, 8, kernel_size=(1, 64), stride=(1, 1), padding=(0, 32), bias=False)
    (bnorm_temporal): BatchNorm2d(8, eps=0.001, momentum=0.01, affine=True, track_running_stats=True)
    (conv_spatial): Conv2dWithConstraint(8, 16, kernel_size=(22, 1), stride=(1, 1), groups=8, bias=False)
    (bnorm_1): BatchNorm2d(16, eps=0.001, momentum=0.01, affine=True, track_running_stats=True)
    (elu_1): Expression(expression=elu) 
    (pool_1): AvgPool2d(kernel_size=(1, 4), stride=(1, 4), padding=0)
    (drop_1): Dropout(p=0.25, inplace=False)
    (conv_separable_depth): Conv2d(16, 16, kernel_size=(1, 16), stride=(1, 1), padding=(0, 8), groups=16, bias=False)
    (conv_separable_point): Conv2d(16, 16, kernel_size=(1, 1), stride=(1, 1), bias=False)
    (bnorm_2): BatchNorm2d(16, eps=0.001, momentum=0.01, affine=True, track_running_stats=True)
    (elu_2): Expression(expression=elu) 
    (pool_2): AvgPool2d(kernel_size=(1, 8), stride=(1, 8), padding=0)
    (drop_2): Dropout(p=0.25, inplace=False)
    (conv_classifier): Conv2d(16, 4, kernel_size=(1, 35), stride=(1, 1))
    (softmax): LogSoftmax(dim=1)
    (permute_back): Expression(expression=_transpose_1_0) 
    (squeeze): Expression(expression=squeeze_final_output) 
  ),
)
<class 'braindecode.classifier.EEGClassifier'>[uninitialized](
  module=EEGNetv4(
    (ensuredims): Ensure4d()
    (dimshuffle): Expression(expression=_transpose_to_b_1_c_0) 
    (conv_temporal): Conv2d(1, 8, kernel_size=(1, 64), stride=(1, 1), padding=(0, 32), bias=False)
    (bnorm_temporal): BatchNorm2d(8, eps=0.001, momentum=0.01, affine=True, track_running_stats=True)
    (conv_spatial): Conv2dWithConstraint(8, 16, kernel_size=(22, 1), stride=(1, 1), groups=8, bias=False)
    (bnorm_1): BatchNorm2d(16, eps=0.001, momentum=0.01, affine=True, track_running_stats=True)
    (elu_1): Expression(expression=elu) 
    (pool_1): AvgPool2d(kernel_size=(1, 4), stride=(1, 4), padding=0)
    (drop_1): Dropout(p=0.25, inplace=False)
    (conv_separable_depth): Conv2d(16, 16, kernel_size=(1, 16), stride=(1, 1), padding=(0, 8), groups=16, bias=False)
    (conv_separable_point): Conv2d(16, 16, kernel_size=(1, 1), stride=(1, 1), bias=False)
    (bnorm_2): BatchNorm2d(16, eps=0.001, momentum=0.01, affine=True, track_running_stats=True)
    (elu_2): Expression(expression=elu) 
    (pool_2): AvgPool2d(kernel_size=(1, 8), stride=(1, 8), padding=0)
    (drop_2): Dropout(p=0.25, inplace=False)
    (conv_classifier): Conv2d(16, 4, kernel_size=(1, 35), stride=(1, 1))
    (softmax): LogSoftmax(dim=1)
    (permute_back): Expression(expression=_transpose_1_0) 
    (squeeze): Expression(expression=squeeze_final_output) 
  ),
)
<class 'braindecode.classifier.EEGClassifier'>[uninitialized](
  module=EEGNetv4(
    (ensuredims): Ensure4d()
    (dimshuffle): Expression(expression=_transpose_to_b_1_c_0) 
    (conv_temporal): Conv2d(1, 8, kernel_size=(1, 64), stride=(1, 1), padding=(0, 32), bias=False)
    (bnorm_temporal): BatchNorm2d(8, eps=0.001, momentum=0.01, affine=True, track_running_stats=True)
    (conv_spatial): Conv2dWithConstraint(8, 16, kernel_size=(22, 1), stride=(1, 1), groups=8, bias=False)
    (bnorm_1): BatchNorm2d(16, eps=0.001, momentum=0.01, affine=True, track_running_stats=True)
    (elu_1): Expression(expression=elu) 
    (pool_1): AvgPool2d(kernel_size=(1, 4), stride=(1, 4), padding=0)
    (drop_1): Dropout(p=0.25, inplace=False)
    (conv_separable_depth): Conv2d(16, 16, kernel_size=(1, 16), stride=(1, 1), padding=(0, 8), groups=16, bias=False)
    (conv_separable_point): Conv2d(16, 16, kernel_size=(1, 1), stride=(1, 1), bias=False)
    (bnorm_2): BatchNorm2d(16, eps=0.001, momentum=0.01, affine=True, track_running_stats=True)
    (elu_2): Expression(expression=elu) 
    (pool_2): AvgPool2d(kernel_size=(1, 8), stride=(1, 8), padding=0)
    (drop_2): Dropout(p=0.25, inplace=False)
    (conv_classifier): Conv2d(16, 4, kernel_size=(1, 35), stride=(1, 1))
    (softmax): LogSoftmax(dim=1)
    (permute_back): Expression(expression=_transpose_1_0) 
    (squeeze): Expression(expression=squeeze_final_output) 
  ),
)
<class 'braindecode.classifier.EEGClassifier'>[uninitialized](
  module=EEGNetv4(
    (ensuredims): Ensure4d()
    (dimshuffle): Expression(expression=_transpose_to_b_1_c_0) 
    (conv_temporal): Conv2d(1, 8, kernel_size=(1, 64), stride=(1, 1), padding=(0, 32), bias=False)
    (bnorm_temporal): BatchNorm2d(8, eps=0.001, momentum=0.01, affine=True, track_running_stats=True)
    (conv_spatial): Conv2dWithConstraint(8, 16, kernel_size=(22, 1), stride=(1, 1), groups=8, bias=False)
    (bnorm_1): BatchNorm2d(16, eps=0.001, momentum=0.01, affine=True, track_running_stats=True)
    (elu_1): Expression(expression=elu) 
    (pool_1): AvgPool2d(kernel_size=(1, 4), stride=(1, 4), padding=0)
    (drop_1): Dropout(p=0.25, inplace=False)
    (conv_separable_depth): Conv2d(16, 16, kernel_size=(1, 16), stride=(1, 1), padding=(0, 8), groups=16, bias=False)
    (conv_separable_point): Conv2d(16, 16, kernel_size=(1, 1), stride=(1, 1), bias=False)
    (bnorm_2): BatchNorm2d(16, eps=0.001, momentum=0.01, affine=True, track_running_stats=True)
    (elu_2): Expression(expression=elu) 
    (pool_2): AvgPool2d(kernel_size=(1, 8), stride=(1, 8), padding=0)
    (drop_2): Dropout(p=0.25, inplace=False)
    (conv_classifier): Conv2d(16, 4, kernel_size=(1, 35), stride=(1, 1))
    (softmax): LogSoftmax(dim=1)
    (permute_back): Expression(expression=_transpose_1_0) 
    (squeeze): Expression(expression=squeeze_final_output) 
  ),
)
<class 'braindecode.classifier.EEGClassifier'>[uninitialized](
  module=EEGNetv4(
    (ensuredims): Ensure4d()
    (dimshuffle): Expression(expression=_transpose_to_b_1_c_0) 
    (conv_temporal): Conv2d(1, 8, kernel_size=(1, 64), stride=(1, 1), padding=(0, 32), bias=False)
    (bnorm_temporal): BatchNorm2d(8, eps=0.001, momentum=0.01, affine=True, track_running_stats=True)
    (conv_spatial): Conv2dWithConstraint(8, 16, kernel_size=(22, 1), stride=(1, 1), groups=8, bias=False)
    (bnorm_1): BatchNorm2d(16, eps=0.001, momentum=0.01, affine=True, track_running_stats=True)
    (elu_1): Expression(expression=elu) 
    (pool_1): AvgPool2d(kernel_size=(1, 4), stride=(1, 4), padding=0)
    (drop_1): Dropout(p=0.25, inplace=False)
    (conv_separable_depth): Conv2d(16, 16, kernel_size=(1, 16), stride=(1, 1), padding=(0, 8), groups=16, bias=False)
    (conv_separable_point): Conv2d(16, 16, kernel_size=(1, 1), stride=(1, 1), bias=False)
    (bnorm_2): BatchNorm2d(16, eps=0.001, momentum=0.01, affine=True, track_running_stats=True)
    (elu_2): Expression(expression=elu) 
    (pool_2): AvgPool2d(kernel_size=(1, 8), stride=(1, 8), padding=0)
    (drop_2): Dropout(p=0.25, inplace=False)
    (conv_classifier): Conv2d(16, 4, kernel_size=(1, 35), stride=(1, 1))
    (softmax): LogSoftmax(dim=1)
    (permute_back): Expression(expression=_transpose_1_0) 
    (squeeze): Expression(expression=squeeze_final_output) 
  ),
)
<class 'braindecode.classifier.EEGClassifier'>[uninitialized](
  module=EEGNetv4(
    (ensuredims): Ensure4d()
    (dimshuffle): Expression(expression=_transpose_to_b_1_c_0) 
    (conv_temporal): Conv2d(1, 8, kernel_size=(1, 64), stride=(1, 1), padding=(0, 32), bias=False)
    (bnorm_temporal): BatchNorm2d(8, eps=0.001, momentum=0.01, affine=True, track_running_stats=True)
    (conv_spatial): Conv2dWithConstraint(8, 16, kernel_size=(22, 1), stride=(1, 1), groups=8, bias=False)
    (bnorm_1): BatchNorm2d(16, eps=0.001, momentum=0.01, affine=True, track_running_stats=True)
    (elu_1): Expression(expression=elu) 
    (pool_1): AvgPool2d(kernel_size=(1, 4), stride=(1, 4), padding=0)
    (drop_1): Dropout(p=0.25, inplace=False)
    (conv_separable_depth): Conv2d(16, 16, kernel_size=(1, 16), stride=(1, 1), padding=(0, 8), groups=16, bias=False)
    (conv_separable_point): Conv2d(16, 16, kernel_size=(1, 1), stride=(1, 1), bias=False)
    (bnorm_2): BatchNorm2d(16, eps=0.001, momentum=0.01, affine=True, track_running_stats=True)
    (elu_2): Expression(expression=elu) 
    (pool_2): AvgPool2d(kernel_size=(1, 8), stride=(1, 8), padding=0)
    (drop_2): Dropout(p=0.25, inplace=False)
    (conv_classifier): Conv2d(16, 4, kernel_size=(1, 35), stride=(1, 1))
    (softmax): LogSoftmax(dim=1)
    (permute_back): Expression(expression=_transpose_1_0) 
    (squeeze): Expression(expression=squeeze_final_output) 
  ),
)
<class 'braindecode.classifier.EEGClassifier'>[uninitialized](
  module=EEGNetv4(
    (ensuredims): Ensure4d()
    (dimshuffle): Expression(expression=_transpose_to_b_1_c_0) 
    (conv_temporal): Conv2d(1, 8, kernel_size=(1, 64), stride=(1, 1), padding=(0, 32), bias=False)
    (bnorm_temporal): BatchNorm2d(8, eps=0.001, momentum=0.01, affine=True, track_running_stats=True)
    (conv_spatial): Conv2dWithConstraint(8, 16, kernel_size=(22, 1), stride=(1, 1), groups=8, bias=False)
    (bnorm_1): BatchNorm2d(16, eps=0.001, momentum=0.01, affine=True, track_running_stats=True)
    (elu_1): Expression(expression=elu) 
    (pool_1): AvgPool2d(kernel_size=(1, 4), stride=(1, 4), padding=0)
    (drop_1): Dropout(p=0.25, inplace=False)
    (conv_separable_depth): Conv2d(16, 16, kernel_size=(1, 16), stride=(1, 1), padding=(0, 8), groups=16, bias=False)
    (conv_separable_point): Conv2d(16, 16, kernel_size=(1, 1), stride=(1, 1), bias=False)
    (bnorm_2): BatchNorm2d(16, eps=0.001, momentum=0.01, affine=True, track_running_stats=True)
    (elu_2): Expression(expression=elu) 
    (pool_2): AvgPool2d(kernel_size=(1, 8), stride=(1, 8), padding=0)
    (drop_2): Dropout(p=0.25, inplace=False)
    (conv_classifier): Conv2d(16, 4, kernel_size=(1, 35), stride=(1, 1))
    (softmax): LogSoftmax(dim=1)
    (permute_back): Expression(expression=_transpose_1_0) 
    (squeeze): Expression(expression=squeeze_final_output) 
  ),
)
<class 'braindecode.classifier.EEGClassifier'>[uninitialized](
  module=EEGNetv4(
    (ensuredims): Ensure4d()
    (dimshuffle): Expression(expression=_transpose_to_b_1_c_0) 
    (conv_temporal): Conv2d(1, 8, kernel_size=(1, 64), stride=(1, 1), padding=(0, 32), bias=False)
    (bnorm_temporal): BatchNorm2d(8, eps=0.001, momentum=0.01, affine=True, track_running_stats=True)
    (conv_spatial): Conv2dWithConstraint(8, 16, kernel_size=(22, 1), stride=(1, 1), groups=8, bias=False)
    (bnorm_1): BatchNorm2d(16, eps=0.001, momentum=0.01, affine=True, track_running_stats=True)
    (elu_1): Expression(expression=elu) 
    (pool_1): AvgPool2d(kernel_size=(1, 4), stride=(1, 4), padding=0)
    (drop_1): Dropout(p=0.25, inplace=False)
    (conv_separable_depth): Conv2d(16, 16, kernel_size=(1, 16), stride=(1, 1), padding=(0, 8), groups=16, bias=False)
    (conv_separable_point): Conv2d(16, 16, kernel_size=(1, 1), stride=(1, 1), bias=False)
    (bnorm_2): BatchNorm2d(16, eps=0.001, momentum=0.01, affine=True, track_running_stats=True)
    (elu_2): Expression(expression=elu) 
    (pool_2): AvgPool2d(kernel_size=(1, 8), stride=(1, 8), padding=0)
    (drop_2): Dropout(p=0.25, inplace=False)
    (conv_classifier): Conv2d(16, 4, kernel_size=(1, 35), stride=(1, 1))
    (softmax): LogSoftmax(dim=1)
    (permute_back): Expression(expression=_transpose_1_0) 
    (squeeze): Expression(expression=squeeze_final_output) 
  ),
)
<class 'braindecode.classifier.EEGClassifier'>[uninitialized](
  module=EEGNetv4(
    (ensuredims): Ensure4d()
    (dimshuffle): Expression(expression=_transpose_to_b_1_c_0) 
    (conv_temporal): Conv2d(1, 8, kernel_size=(1, 64), stride=(1, 1), padding=(0, 32), bias=False)
    (bnorm_temporal): BatchNorm2d(8, eps=0.001, momentum=0.01, affine=True, track_running_stats=True)
    (conv_spatial): Conv2dWithConstraint(8, 16, kernel_size=(22, 1), stride=(1, 1), groups=8, bias=False)
    (bnorm_1): BatchNorm2d(16, eps=0.001, momentum=0.01, affine=True, track_running_stats=True)
    (elu_1): Expression(expression=elu) 
    (pool_1): AvgPool2d(kernel_size=(1, 4), stride=(1, 4), padding=0)
    (drop_1): Dropout(p=0.25, inplace=False)
    (conv_separable_depth): Conv2d(16, 16, kernel_size=(1, 16), stride=(1, 1), padding=(0, 8), groups=16, bias=False)
    (conv_separable_point): Conv2d(16, 16, kernel_size=(1, 1), stride=(1, 1), bias=False)
    (bnorm_2): BatchNorm2d(16, eps=0.001, momentum=0.01, affine=True, track_running_stats=True)
    (elu_2): Expression(expression=elu) 
    (pool_2): AvgPool2d(kernel_size=(1, 8), stride=(1, 8), padding=0)
    (drop_2): Dropout(p=0.25, inplace=False)
    (conv_classifier): Conv2d(16, 4, kernel_size=(1, 35), stride=(1, 1))
    (softmax): LogSoftmax(dim=1)
    (permute_back): Expression(expression=_transpose_1_0) 
    (squeeze): Expression(expression=squeeze_final_output) 
  ),
)
<class 'braindecode.classifier.EEGClassifier'>[uninitialized](
  module=EEGNetv4(
    (ensuredims): Ensure4d()
    (dimshuffle): Expression(expression=_transpose_to_b_1_c_0) 
    (conv_temporal): Conv2d(1, 8, kernel_size=(1, 64), stride=(1, 1), padding=(0, 32), bias=False)
    (bnorm_temporal): BatchNorm2d(8, eps=0.001, momentum=0.01, affine=True, track_running_stats=True)
    (conv_spatial): Conv2dWithConstraint(8, 16, kernel_size=(22, 1), stride=(1, 1), groups=8, bias=False)
    (bnorm_1): BatchNorm2d(16, eps=0.001, momentum=0.01, affine=True, track_running_stats=True)
    (elu_1): Expression(expression=elu) 
    (pool_1): AvgPool2d(kernel_size=(1, 4), stride=(1, 4), padding=0)
    (drop_1): Dropout(p=0.25, inplace=False)
    (conv_separable_depth): Conv2d(16, 16, kernel_size=(1, 16), stride=(1, 1), padding=(0, 8), groups=16, bias=False)
    (conv_separable_point): Conv2d(16, 16, kernel_size=(1, 1), stride=(1, 1), bias=False)
    (bnorm_2): BatchNorm2d(16, eps=0.001, momentum=0.01, affine=True, track_running_stats=True)
    (elu_2): Expression(expression=elu) 
    (pool_2): AvgPool2d(kernel_size=(1, 8), stride=(1, 8), padding=0)
    (drop_2): Dropout(p=0.25, inplace=False)
    (conv_classifier): Conv2d(16, 4, kernel_size=(1, 35), stride=(1, 1))
    (softmax): LogSoftmax(dim=1)
    (permute_back): Expression(expression=_transpose_1_0) 
    (squeeze): Expression(expression=squeeze_final_output) 
  ),
)
<class 'braindecode.classifier.EEGClassifier'>[uninitialized](
  module=EEGNetv4(
    (ensuredims): Ensure4d()
    (dimshuffle): Expression(expression=_transpose_to_b_1_c_0) 
    (conv_temporal): Conv2d(1, 8, kernel_size=(1, 64), stride=(1, 1), padding=(0, 32), bias=False)
    (bnorm_temporal): BatchNorm2d(8, eps=0.001, momentum=0.01, affine=True, track_running_stats=True)
    (conv_spatial): Conv2dWithConstraint(8, 16, kernel_size=(22, 1), stride=(1, 1), groups=8, bias=False)
    (bnorm_1): BatchNorm2d(16, eps=0.001, momentum=0.01, affine=True, track_running_stats=True)
    (elu_1): Expression(expression=elu) 
    (pool_1): AvgPool2d(kernel_size=(1, 4), stride=(1, 4), padding=0)
    (drop_1): Dropout(p=0.25, inplace=False)
    (conv_separable_depth): Conv2d(16, 16, kernel_size=(1, 16), stride=(1, 1), padding=(0, 8), groups=16, bias=False)
    (conv_separable_point): Conv2d(16, 16, kernel_size=(1, 1), stride=(1, 1), bias=False)
    (bnorm_2): BatchNorm2d(16, eps=0.001, momentum=0.01, affine=True, track_running_stats=True)
    (elu_2): Expression(expression=elu) 
    (pool_2): AvgPool2d(kernel_size=(1, 8), stride=(1, 8), padding=0)
    (drop_2): Dropout(p=0.25, inplace=False)
    (conv_classifier): Conv2d(16, 4, kernel_size=(1, 35), stride=(1, 1))
    (softmax): LogSoftmax(dim=1)
    (permute_back): Expression(expression=_transpose_1_0) 
    (squeeze): Expression(expression=squeeze_final_output) 
  ),
)
<class 'braindecode.classifier.EEGClassifier'>[uninitialized](
  module=EEGNetv4(
    (ensuredims): Ensure4d()
    (dimshuffle): Expression(expression=_transpose_to_b_1_c_0) 
    (conv_temporal): Conv2d(1, 8, kernel_size=(1, 64), stride=(1, 1), padding=(0, 32), bias=False)
    (bnorm_temporal): BatchNorm2d(8, eps=0.001, momentum=0.01, affine=True, track_running_stats=True)
    (conv_spatial): Conv2dWithConstraint(8, 16, kernel_size=(22, 1), stride=(1, 1), groups=8, bias=False)
    (bnorm_1): BatchNorm2d(16, eps=0.001, momentum=0.01, affine=True, track_running_stats=True)
    (elu_1): Expression(expression=elu) 
    (pool_1): AvgPool2d(kernel_size=(1, 4), stride=(1, 4), padding=0)
    (drop_1): Dropout(p=0.25, inplace=False)
    (conv_separable_depth): Conv2d(16, 16, kernel_size=(1, 16), stride=(1, 1), padding=(0, 8), groups=16, bias=False)
    (conv_separable_point): Conv2d(16, 16, kernel_size=(1, 1), stride=(1, 1), bias=False)
    (bnorm_2): BatchNorm2d(16, eps=0.001, momentum=0.01, affine=True, track_running_stats=True)
    (elu_2): Expression(expression=elu) 
    (pool_2): AvgPool2d(kernel_size=(1, 8), stride=(1, 8), padding=0)
    (drop_2): Dropout(p=0.25, inplace=False)
    (conv_classifier): Conv2d(16, 4, kernel_size=(1, 35), stride=(1, 1))
    (softmax): LogSoftmax(dim=1)
    (permute_back): Expression(expression=_transpose_1_0) 
    (squeeze): Expression(expression=squeeze_final_output) 
  ),
)
<class 'braindecode.classifier.EEGClassifier'>[uninitialized](
  module=EEGNetv4(
    (ensuredims): Ensure4d()
    (dimshuffle): Expression(expression=_transpose_to_b_1_c_0) 
    (conv_temporal): Conv2d(1, 8, kernel_size=(1, 64), stride=(1, 1), padding=(0, 32), bias=False)
    (bnorm_temporal): BatchNorm2d(8, eps=0.001, momentum=0.01, affine=True, track_running_stats=True)
    (conv_spatial): Conv2dWithConstraint(8, 16, kernel_size=(22, 1), stride=(1, 1), groups=8, bias=False)
    (bnorm_1): BatchNorm2d(16, eps=0.001, momentum=0.01, affine=True, track_running_stats=True)
    (elu_1): Expression(expression=elu) 
    (pool_1): AvgPool2d(kernel_size=(1, 4), stride=(1, 4), padding=0)
    (drop_1): Dropout(p=0.25, inplace=False)
    (conv_separable_depth): Conv2d(16, 16, kernel_size=(1, 16), stride=(1, 1), padding=(0, 8), groups=16, bias=False)
    (conv_separable_point): Conv2d(16, 16, kernel_size=(1, 1), stride=(1, 1), bias=False)
    (bnorm_2): BatchNorm2d(16, eps=0.001, momentum=0.01, affine=True, track_running_stats=True)
    (elu_2): Expression(expression=elu) 
    (pool_2): AvgPool2d(kernel_size=(1, 8), stride=(1, 8), padding=0)
    (drop_2): Dropout(p=0.25, inplace=False)
    (conv_classifier): Conv2d(16, 4, kernel_size=(1, 35), stride=(1, 1))
    (softmax): LogSoftmax(dim=1)
    (permute_back): Expression(expression=_transpose_1_0) 
    (squeeze): Expression(expression=squeeze_final_output) 
  ),
)
<class 'braindecode.classifier.EEGClassifier'>[uninitialized](
  module=EEGNetv4(
    (ensuredims): Ensure4d()
    (dimshuffle): Expression(expression=_transpose_to_b_1_c_0) 
    (conv_temporal): Conv2d(1, 8, kernel_size=(1, 64), stride=(1, 1), padding=(0, 32), bias=False)
    (bnorm_temporal): BatchNorm2d(8, eps=0.001, momentum=0.01, affine=True, track_running_stats=True)
    (conv_spatial): Conv2dWithConstraint(8, 16, kernel_size=(22, 1), stride=(1, 1), groups=8, bias=False)
    (bnorm_1): BatchNorm2d(16, eps=0.001, momentum=0.01, affine=True, track_running_stats=True)
    (elu_1): Expression(expression=elu) 
    (pool_1): AvgPool2d(kernel_size=(1, 4), stride=(1, 4), padding=0)
    (drop_1): Dropout(p=0.25, inplace=False)
    (conv_separable_depth): Conv2d(16, 16, kernel_size=(1, 16), stride=(1, 1), padding=(0, 8), groups=16, bias=False)
    (conv_separable_point): Conv2d(16, 16, kernel_size=(1, 1), stride=(1, 1), bias=False)
    (bnorm_2): BatchNorm2d(16, eps=0.001, momentum=0.01, affine=True, track_running_stats=True)
    (elu_2): Expression(expression=elu) 
    (pool_2): AvgPool2d(kernel_size=(1, 8), stride=(1, 8), padding=0)
    (drop_2): Dropout(p=0.25, inplace=False)
    (conv_classifier): Conv2d(16, 4, kernel_size=(1, 35), stride=(1, 1))
    (softmax): LogSoftmax(dim=1)
    (permute_back): Expression(expression=_transpose_1_0) 
    (squeeze): Expression(expression=squeeze_final_output) 
  ),
)
<class 'braindecode.classifier.EEGClassifier'>[uninitialized](
  module=EEGNetv4(
    (ensuredims): Ensure4d()
    (dimshuffle): Expression(expression=_transpose_to_b_1_c_0) 
    (conv_temporal): Conv2d(1, 8, kernel_size=(1, 64), stride=(1, 1), padding=(0, 32), bias=False)
    (bnorm_temporal): BatchNorm2d(8, eps=0.001, momentum=0.01, affine=True, track_running_stats=True)
    (conv_spatial): Conv2dWithConstraint(8, 16, kernel_size=(22, 1), stride=(1, 1), groups=8, bias=False)
    (bnorm_1): BatchNorm2d(16, eps=0.001, momentum=0.01, affine=True, track_running_stats=True)
    (elu_1): Expression(expression=elu) 
    (pool_1): AvgPool2d(kernel_size=(1, 4), stride=(1, 4), padding=0)
    (drop_1): Dropout(p=0.25, inplace=False)
    (conv_separable_depth): Conv2d(16, 16, kernel_size=(1, 16), stride=(1, 1), padding=(0, 8), groups=16, bias=False)
    (conv_separable_point): Conv2d(16, 16, kernel_size=(1, 1), stride=(1, 1), bias=False)
    (bnorm_2): BatchNorm2d(16, eps=0.001, momentum=0.01, affine=True, track_running_stats=True)
    (elu_2): Expression(expression=elu) 
    (pool_2): AvgPool2d(kernel_size=(1, 8), stride=(1, 8), padding=0)
    (drop_2): Dropout(p=0.25, inplace=False)
    (conv_classifier): Conv2d(16, 4, kernel_size=(1, 35), stride=(1, 1))
    (softmax): LogSoftmax(dim=1)
    (permute_back): Expression(expression=_transpose_1_0) 
    (squeeze): Expression(expression=squeeze_final_output) 
  ),
)
<class 'braindecode.classifier.EEGClassifier'>[uninitialized](
  module=EEGNetv4(
    (ensuredims): Ensure4d()
    (dimshuffle): Expression(expression=_transpose_to_b_1_c_0) 
    (conv_temporal): Conv2d(1, 8, kernel_size=(1, 64), stride=(1, 1), padding=(0, 32), bias=False)
    (bnorm_temporal): BatchNorm2d(8, eps=0.001, momentum=0.01, affine=True, track_running_stats=True)
    (conv_spatial): Conv2dWithConstraint(8, 16, kernel_size=(22, 1), stride=(1, 1), groups=8, bias=False)
    (bnorm_1): BatchNorm2d(16, eps=0.001, momentum=0.01, affine=True, track_running_stats=True)
    (elu_1): Expression(expression=elu) 
    (pool_1): AvgPool2d(kernel_size=(1, 4), stride=(1, 4), padding=0)
    (drop_1): Dropout(p=0.25, inplace=False)
    (conv_separable_depth): Conv2d(16, 16, kernel_size=(1, 16), stride=(1, 1), padding=(0, 8), groups=16, bias=False)
    (conv_separable_point): Conv2d(16, 16, kernel_size=(1, 1), stride=(1, 1), bias=False)
    (bnorm_2): BatchNorm2d(16, eps=0.001, momentum=0.01, affine=True, track_running_stats=True)
    (elu_2): Expression(expression=elu) 
    (pool_2): AvgPool2d(kernel_size=(1, 8), stride=(1, 8), padding=0)
    (drop_2): Dropout(p=0.25, inplace=False)
    (conv_classifier): Conv2d(16, 4, kernel_size=(1, 35), stride=(1, 1))
    (softmax): LogSoftmax(dim=1)
    (permute_back): Expression(expression=_transpose_1_0) 
    (squeeze): Expression(expression=squeeze_final_output) 
  ),
)
<class 'braindecode.classifier.EEGClassifier'>[uninitialized](
  module=EEGNetv4(
    (ensuredims): Ensure4d()
    (dimshuffle): Expression(expression=_transpose_to_b_1_c_0) 
    (conv_temporal): Conv2d(1, 8, kernel_size=(1, 64), stride=(1, 1), padding=(0, 32), bias=False)
    (bnorm_temporal): BatchNorm2d(8, eps=0.001, momentum=0.01, affine=True, track_running_stats=True)
    (conv_spatial): Conv2dWithConstraint(8, 16, kernel_size=(22, 1), stride=(1, 1), groups=8, bias=False)
    (bnorm_1): BatchNorm2d(16, eps=0.001, momentum=0.01, affine=True, track_running_stats=True)
    (elu_1): Expression(expression=elu) 
    (pool_1): AvgPool2d(kernel_size=(1, 4), stride=(1, 4), padding=0)
    (drop_1): Dropout(p=0.25, inplace=False)
    (conv_separable_depth): Conv2d(16, 16, kernel_size=(1, 16), stride=(1, 1), padding=(0, 8), groups=16, bias=False)
    (conv_separable_point): Conv2d(16, 16, kernel_size=(1, 1), stride=(1, 1), bias=False)
    (bnorm_2): BatchNorm2d(16, eps=0.001, momentum=0.01, affine=True, track_running_stats=True)
    (elu_2): Expression(expression=elu) 
    (pool_2): AvgPool2d(kernel_size=(1, 8), stride=(1, 8), padding=0)
    (drop_2): Dropout(p=0.25, inplace=False)
    (conv_classifier): Conv2d(16, 4, kernel_size=(1, 35), stride=(1, 1))
    (softmax): LogSoftmax(dim=1)
    (permute_back): Expression(expression=_transpose_1_0) 
    (squeeze): Expression(expression=squeeze_final_output) 
  ),
)
<class 'braindecode.classifier.EEGClassifier'>[uninitialized](
  module=EEGNetv4(
    (ensuredims): Ensure4d()
    (dimshuffle): Expression(expression=_transpose_to_b_1_c_0) 
    (conv_temporal): Conv2d(1, 8, kernel_size=(1, 64), stride=(1, 1), padding=(0, 32), bias=False)
    (bnorm_temporal): BatchNorm2d(8, eps=0.001, momentum=0.01, affine=True, track_running_stats=True)
    (conv_spatial): Conv2dWithConstraint(8, 16, kernel_size=(22, 1), stride=(1, 1), groups=8, bias=False)
    (bnorm_1): BatchNorm2d(16, eps=0.001, momentum=0.01, affine=True, track_running_stats=True)
    (elu_1): Expression(expression=elu) 
    (pool_1): AvgPool2d(kernel_size=(1, 4), stride=(1, 4), padding=0)
    (drop_1): Dropout(p=0.25, inplace=False)
    (conv_separable_depth): Conv2d(16, 16, kernel_size=(1, 16), stride=(1, 1), padding=(0, 8), groups=16, bias=False)
    (conv_separable_point): Conv2d(16, 16, kernel_size=(1, 1), stride=(1, 1), bias=False)
    (bnorm_2): BatchNorm2d(16, eps=0.001, momentum=0.01, affine=True, track_running_stats=True)
    (elu_2): Expression(expression=elu) 
    (pool_2): AvgPool2d(kernel_size=(1, 8), stride=(1, 8), padding=0)
    (drop_2): Dropout(p=0.25, inplace=False)
    (conv_classifier): Conv2d(16, 4, kernel_size=(1, 35), stride=(1, 1))
    (softmax): LogSoftmax(dim=1)
    (permute_back): Expression(expression=_transpose_1_0) 
    (squeeze): Expression(expression=squeeze_final_output) 
  ),
)
<class 'braindecode.classifier.EEGClassifier'>[uninitialized](
  module=EEGNetv4(
    (ensuredims): Ensure4d()
    (dimshuffle): Expression(expression=_transpose_to_b_1_c_0) 
    (conv_temporal): Conv2d(1, 8, kernel_size=(1, 64), stride=(1, 1), padding=(0, 32), bias=False)
    (bnorm_temporal): BatchNorm2d(8, eps=0.001, momentum=0.01, affine=True, track_running_stats=True)
    (conv_spatial): Conv2dWithConstraint(8, 16, kernel_size=(22, 1), stride=(1, 1), groups=8, bias=False)
    (bnorm_1): BatchNorm2d(16, eps=0.001, momentum=0.01, affine=True, track_running_stats=True)
    (elu_1): Expression(expression=elu) 
    (pool_1): AvgPool2d(kernel_size=(1, 4), stride=(1, 4), padding=0)
    (drop_1): Dropout(p=0.25, inplace=False)
    (conv_separable_depth): Conv2d(16, 16, kernel_size=(1, 16), stride=(1, 1), padding=(0, 8), groups=16, bias=False)
    (conv_separable_point): Conv2d(16, 16, kernel_size=(1, 1), stride=(1, 1), bias=False)
    (bnorm_2): BatchNorm2d(16, eps=0.001, momentum=0.01, affine=True, track_running_stats=True)
    (elu_2): Expression(expression=elu) 
    (pool_2): AvgPool2d(kernel_size=(1, 8), stride=(1, 8), padding=0)
    (drop_2): Dropout(p=0.25, inplace=False)
    (conv_classifier): Conv2d(16, 4, kernel_size=(1, 35), stride=(1, 1))
    (softmax): LogSoftmax(dim=1)
    (permute_back): Expression(expression=_transpose_1_0) 
    (squeeze): Expression(expression=squeeze_final_output) 
  ),
)
<class 'braindecode.classifier.EEGClassifier'>[uninitialized](
  module=EEGNetv4(
    (ensuredims): Ensure4d()
    (dimshuffle): Expression(expression=_transpose_to_b_1_c_0) 
    (conv_temporal): Conv2d(1, 8, kernel_size=(1, 64), stride=(1, 1), padding=(0, 32), bias=False)
    (bnorm_temporal): BatchNorm2d(8, eps=0.001, momentum=0.01, affine=True, track_running_stats=True)
    (conv_spatial): Conv2dWithConstraint(8, 16, kernel_size=(22, 1), stride=(1, 1), groups=8, bias=False)
    (bnorm_1): BatchNorm2d(16, eps=0.001, momentum=0.01, affine=True, track_running_stats=True)
    (elu_1): Expression(expression=elu) 
    (pool_1): AvgPool2d(kernel_size=(1, 4), stride=(1, 4), padding=0)
    (drop_1): Dropout(p=0.25, inplace=False)
    (conv_separable_depth): Conv2d(16, 16, kernel_size=(1, 16), stride=(1, 1), padding=(0, 8), groups=16, bias=False)
    (conv_separable_point): Conv2d(16, 16, kernel_size=(1, 1), stride=(1, 1), bias=False)
    (bnorm_2): BatchNorm2d(16, eps=0.001, momentum=0.01, affine=True, track_running_stats=True)
    (elu_2): Expression(expression=elu) 
    (pool_2): AvgPool2d(kernel_size=(1, 8), stride=(1, 8), padding=0)
    (drop_2): Dropout(p=0.25, inplace=False)
    (conv_classifier): Conv2d(16, 4, kernel_size=(1, 35), stride=(1, 1))
    (softmax): LogSoftmax(dim=1)
    (permute_back): Expression(expression=_transpose_1_0) 
    (squeeze): Expression(expression=squeeze_final_output) 
  ),
)
<class 'braindecode.classifier.EEGClassifier'>[uninitialized](
  module=EEGNetv4(
    (ensuredims): Ensure4d()
    (dimshuffle): Expression(expression=_transpose_to_b_1_c_0) 
    (conv_temporal): Conv2d(1, 8, kernel_size=(1, 64), stride=(1, 1), padding=(0, 32), bias=False)
    (bnorm_temporal): BatchNorm2d(8, eps=0.001, momentum=0.01, affine=True, track_running_stats=True)
    (conv_spatial): Conv2dWithConstraint(8, 16, kernel_size=(22, 1), stride=(1, 1), groups=8, bias=False)
    (bnorm_1): BatchNorm2d(16, eps=0.001, momentum=0.01, affine=True, track_running_stats=True)
    (elu_1): Expression(expression=elu) 
    (pool_1): AvgPool2d(kernel_size=(1, 4), stride=(1, 4), padding=0)
    (drop_1): Dropout(p=0.25, inplace=False)
    (conv_separable_depth): Conv2d(16, 16, kernel_size=(1, 16), stride=(1, 1), padding=(0, 8), groups=16, bias=False)
    (conv_separable_point): Conv2d(16, 16, kernel_size=(1, 1), stride=(1, 1), bias=False)
    (bnorm_2): BatchNorm2d(16, eps=0.001, momentum=0.01, affine=True, track_running_stats=True)
    (elu_2): Expression(expression=elu) 
    (pool_2): AvgPool2d(kernel_size=(1, 8), stride=(1, 8), padding=0)
    (drop_2): Dropout(p=0.25, inplace=False)
    (conv_classifier): Conv2d(16, 4, kernel_size=(1, 35), stride=(1, 1))
    (softmax): LogSoftmax(dim=1)
    (permute_back): Expression(expression=_transpose_1_0) 
    (squeeze): Expression(expression=squeeze_final_output) 
  ),
)
<class 'braindecode.classifier.EEGClassifier'>[uninitialized](
  module=EEGNetv4(
    (ensuredims): Ensure4d()
    (dimshuffle): Expression(expression=_transpose_to_b_1_c_0) 
    (conv_temporal): Conv2d(1, 8, kernel_size=(1, 64), stride=(1, 1), padding=(0, 32), bias=False)
    (bnorm_temporal): BatchNorm2d(8, eps=0.001, momentum=0.01, affine=True, track_running_stats=True)
    (conv_spatial): Conv2dWithConstraint(8, 16, kernel_size=(22, 1), stride=(1, 1), groups=8, bias=False)
    (bnorm_1): BatchNorm2d(16, eps=0.001, momentum=0.01, affine=True, track_running_stats=True)
    (elu_1): Expression(expression=elu) 
    (pool_1): AvgPool2d(kernel_size=(1, 4), stride=(1, 4), padding=0)
    (drop_1): Dropout(p=0.25, inplace=False)
    (conv_separable_depth): Conv2d(16, 16, kernel_size=(1, 16), stride=(1, 1), padding=(0, 8), groups=16, bias=False)
    (conv_separable_point): Conv2d(16, 16, kernel_size=(1, 1), stride=(1, 1), bias=False)
    (bnorm_2): BatchNorm2d(16, eps=0.001, momentum=0.01, affine=True, track_running_stats=True)
    (elu_2): Expression(expression=elu) 
    (pool_2): AvgPool2d(kernel_size=(1, 8), stride=(1, 8), padding=0)
    (drop_2): Dropout(p=0.25, inplace=False)
    (conv_classifier): Conv2d(16, 4, kernel_size=(1, 35), stride=(1, 1))
    (softmax): LogSoftmax(dim=1)
    (permute_back): Expression(expression=_transpose_1_0) 
    (squeeze): Expression(expression=squeeze_final_output) 
  ),
)
<class 'braindecode.classifier.EEGClassifier'>[uninitialized](
  module=EEGNetv4(
    (ensuredims): Ensure4d()
    (dimshuffle): Expression(expression=_transpose_to_b_1_c_0) 
    (conv_temporal): Conv2d(1, 8, kernel_size=(1, 64), stride=(1, 1), padding=(0, 32), bias=False)
    (bnorm_temporal): BatchNorm2d(8, eps=0.001, momentum=0.01, affine=True, track_running_stats=True)
    (conv_spatial): Conv2dWithConstraint(8, 16, kernel_size=(22, 1), stride=(1, 1), groups=8, bias=False)
    (bnorm_1): BatchNorm2d(16, eps=0.001, momentum=0.01, affine=True, track_running_stats=True)
    (elu_1): Expression(expression=elu) 
    (pool_1): AvgPool2d(kernel_size=(1, 4), stride=(1, 4), padding=0)
    (drop_1): Dropout(p=0.25, inplace=False)
    (conv_separable_depth): Conv2d(16, 16, kernel_size=(1, 16), stride=(1, 1), padding=(0, 8), groups=16, bias=False)
    (conv_separable_point): Conv2d(16, 16, kernel_size=(1, 1), stride=(1, 1), bias=False)
    (bnorm_2): BatchNorm2d(16, eps=0.001, momentum=0.01, affine=True, track_running_stats=True)
    (elu_2): Expression(expression=elu) 
    (pool_2): AvgPool2d(kernel_size=(1, 8), stride=(1, 8), padding=0)
    (drop_2): Dropout(p=0.25, inplace=False)
    (conv_classifier): Conv2d(16, 4, kernel_size=(1, 35), stride=(1, 1))
    (softmax): LogSoftmax(dim=1)
    (permute_back): Expression(expression=_transpose_1_0) 
    (squeeze): Expression(expression=squeeze_final_output) 
  ),
)
<class 'braindecode.classifier.EEGClassifier'>[uninitialized](
  module=EEGNetv4(
    (ensuredims): Ensure4d()
    (dimshuffle): Expression(expression=_transpose_to_b_1_c_0) 
    (conv_temporal): Conv2d(1, 8, kernel_size=(1, 64), stride=(1, 1), padding=(0, 32), bias=False)
    (bnorm_temporal): BatchNorm2d(8, eps=0.001, momentum=0.01, affine=True, track_running_stats=True)
    (conv_spatial): Conv2dWithConstraint(8, 16, kernel_size=(22, 1), stride=(1, 1), groups=8, bias=False)
    (bnorm_1): BatchNorm2d(16, eps=0.001, momentum=0.01, affine=True, track_running_stats=True)
    (elu_1): Expression(expression=elu) 
    (pool_1): AvgPool2d(kernel_size=(1, 4), stride=(1, 4), padding=0)
    (drop_1): Dropout(p=0.25, inplace=False)
    (conv_separable_depth): Conv2d(16, 16, kernel_size=(1, 16), stride=(1, 1), padding=(0, 8), groups=16, bias=False)
    (conv_separable_point): Conv2d(16, 16, kernel_size=(1, 1), stride=(1, 1), bias=False)
    (bnorm_2): BatchNorm2d(16, eps=0.001, momentum=0.01, affine=True, track_running_stats=True)
    (elu_2): Expression(expression=elu) 
    (pool_2): AvgPool2d(kernel_size=(1, 8), stride=(1, 8), padding=0)
    (drop_2): Dropout(p=0.25, inplace=False)
    (conv_classifier): Conv2d(16, 4, kernel_size=(1, 35), stride=(1, 1))
    (softmax): LogSoftmax(dim=1)
    (permute_back): Expression(expression=_transpose_1_0) 
    (squeeze): Expression(expression=squeeze_final_output) 
  ),
)
<class 'braindecode.classifier.EEGClassifier'>[uninitialized](
  module=EEGNetv4(
    (ensuredims): Ensure4d()
    (dimshuffle): Expression(expression=_transpose_to_b_1_c_0) 
    (conv_temporal): Conv2d(1, 8, kernel_size=(1, 64), stride=(1, 1), padding=(0, 32), bias=False)
    (bnorm_temporal): BatchNorm2d(8, eps=0.001, momentum=0.01, affine=True, track_running_stats=True)
    (conv_spatial): Conv2dWithConstraint(8, 16, kernel_size=(22, 1), stride=(1, 1), groups=8, bias=False)
    (bnorm_1): BatchNorm2d(16, eps=0.001, momentum=0.01, affine=True, track_running_stats=True)
    (elu_1): Expression(expression=elu) 
    (pool_1): AvgPool2d(kernel_size=(1, 4), stride=(1, 4), padding=0)
    (drop_1): Dropout(p=0.25, inplace=False)
    (conv_separable_depth): Conv2d(16, 16, kernel_size=(1, 16), stride=(1, 1), padding=(0, 8), groups=16, bias=False)
    (conv_separable_point): Conv2d(16, 16, kernel_size=(1, 1), stride=(1, 1), bias=False)
    (bnorm_2): BatchNorm2d(16, eps=0.001, momentum=0.01, affine=True, track_running_stats=True)
    (elu_2): Expression(expression=elu) 
    (pool_2): AvgPool2d(kernel_size=(1, 8), stride=(1, 8), padding=0)
    (drop_2): Dropout(p=0.25, inplace=False)
    (conv_classifier): Conv2d(16, 4, kernel_size=(1, 35), stride=(1, 1))
    (softmax): LogSoftmax(dim=1)
    (permute_back): Expression(expression=_transpose_1_0) 
    (squeeze): Expression(expression=squeeze_final_output) 
  ),
)
<class 'braindecode.classifier.EEGClassifier'>[uninitialized](
  module=EEGNetv4(
    (ensuredims): Ensure4d()
    (dimshuffle): Expression(expression=_transpose_to_b_1_c_0) 
    (conv_temporal): Conv2d(1, 8, kernel_size=(1, 64), stride=(1, 1), padding=(0, 32), bias=False)
    (bnorm_temporal): BatchNorm2d(8, eps=0.001, momentum=0.01, affine=True, track_running_stats=True)
    (conv_spatial): Conv2dWithConstraint(8, 16, kernel_size=(22, 1), stride=(1, 1), groups=8, bias=False)
    (bnorm_1): BatchNorm2d(16, eps=0.001, momentum=0.01, affine=True, track_running_stats=True)
    (elu_1): Expression(expression=elu) 
    (pool_1): AvgPool2d(kernel_size=(1, 4), stride=(1, 4), padding=0)
    (drop_1): Dropout(p=0.25, inplace=False)
    (conv_separable_depth): Conv2d(16, 16, kernel_size=(1, 16), stride=(1, 1), padding=(0, 8), groups=16, bias=False)
    (conv_separable_point): Conv2d(16, 16, kernel_size=(1, 1), stride=(1, 1), bias=False)
    (bnorm_2): BatchNorm2d(16, eps=0.001, momentum=0.01, affine=True, track_running_stats=True)
    (elu_2): Expression(expression=elu) 
    (pool_2): AvgPool2d(kernel_size=(1, 8), stride=(1, 8), padding=0)
    (drop_2): Dropout(p=0.25, inplace=False)
    (conv_classifier): Conv2d(16, 4, kernel_size=(1, 35), stride=(1, 1))
    (softmax): LogSoftmax(dim=1)
    (permute_back): Expression(expression=_transpose_1_0) 
    (squeeze): Expression(expression=squeeze_final_output) 
  ),
)
<class 'braindecode.classifier.EEGClassifier'>[uninitialized](
  module=EEGNetv4(
    (ensuredims): Ensure4d()
    (dimshuffle): Expression(expression=_transpose_to_b_1_c_0) 
    (conv_temporal): Conv2d(1, 8, kernel_size=(1, 64), stride=(1, 1), padding=(0, 32), bias=False)
    (bnorm_temporal): BatchNorm2d(8, eps=0.001, momentum=0.01, affine=True, track_running_stats=True)
    (conv_spatial): Conv2dWithConstraint(8, 16, kernel_size=(22, 1), stride=(1, 1), groups=8, bias=False)
    (bnorm_1): BatchNorm2d(16, eps=0.001, momentum=0.01, affine=True, track_running_stats=True)
    (elu_1): Expression(expression=elu) 
    (pool_1): AvgPool2d(kernel_size=(1, 4), stride=(1, 4), padding=0)
    (drop_1): Dropout(p=0.25, inplace=False)
    (conv_separable_depth): Conv2d(16, 16, kernel_size=(1, 16), stride=(1, 1), padding=(0, 8), groups=16, bias=False)
    (conv_separable_point): Conv2d(16, 16, kernel_size=(1, 1), stride=(1, 1), bias=False)
    (bnorm_2): BatchNorm2d(16, eps=0.001, momentum=0.01, affine=True, track_running_stats=True)
    (elu_2): Expression(expression=elu) 
    (pool_2): AvgPool2d(kernel_size=(1, 8), stride=(1, 8), padding=0)
    (drop_2): Dropout(p=0.25, inplace=False)
    (conv_classifier): Conv2d(16, 4, kernel_size=(1, 35), stride=(1, 1))
    (softmax): LogSoftmax(dim=1)
    (permute_back): Expression(expression=_transpose_1_0) 
    (squeeze): Expression(expression=squeeze_final_output) 
  ),
)
<class 'braindecode.classifier.EEGClassifier'>[uninitialized](
  module=EEGNetv4(
    (ensuredims): Ensure4d()
    (dimshuffle): Expression(expression=_transpose_to_b_1_c_0) 
    (conv_temporal): Conv2d(1, 8, kernel_size=(1, 64), stride=(1, 1), padding=(0, 32), bias=False)
    (bnorm_temporal): BatchNorm2d(8, eps=0.001, momentum=0.01, affine=True, track_running_stats=True)
    (conv_spatial): Conv2dWithConstraint(8, 16, kernel_size=(22, 1), stride=(1, 1), groups=8, bias=False)
    (bnorm_1): BatchNorm2d(16, eps=0.001, momentum=0.01, affine=True, track_running_stats=True)
    (elu_1): Expression(expression=elu) 
    (pool_1): AvgPool2d(kernel_size=(1, 4), stride=(1, 4), padding=0)
    (drop_1): Dropout(p=0.25, inplace=False)
    (conv_separable_depth): Conv2d(16, 16, kernel_size=(1, 16), stride=(1, 1), padding=(0, 8), groups=16, bias=False)
    (conv_separable_point): Conv2d(16, 16, kernel_size=(1, 1), stride=(1, 1), bias=False)
    (bnorm_2): BatchNorm2d(16, eps=0.001, momentum=0.01, affine=True, track_running_stats=True)
    (elu_2): Expression(expression=elu) 
    (pool_2): AvgPool2d(kernel_size=(1, 8), stride=(1, 8), padding=0)
    (drop_2): Dropout(p=0.25, inplace=False)
    (conv_classifier): Conv2d(16, 4, kernel_size=(1, 35), stride=(1, 1))
    (softmax): LogSoftmax(dim=1)
    (permute_back): Expression(expression=_transpose_1_0) 
    (squeeze): Expression(expression=squeeze_final_output) 
  ),
)
<class 'braindecode.classifier.EEGClassifier'>[uninitialized](
  module=EEGNetv4(
    (ensuredims): Ensure4d()
    (dimshuffle): Expression(expression=_transpose_to_b_1_c_0) 
    (conv_temporal): Conv2d(1, 8, kernel_size=(1, 64), stride=(1, 1), padding=(0, 32), bias=False)
    (bnorm_temporal): BatchNorm2d(8, eps=0.001, momentum=0.01, affine=True, track_running_stats=True)
    (conv_spatial): Conv2dWithConstraint(8, 16, kernel_size=(22, 1), stride=(1, 1), groups=8, bias=False)
    (bnorm_1): BatchNorm2d(16, eps=0.001, momentum=0.01, affine=True, track_running_stats=True)
    (elu_1): Expression(expression=elu) 
    (pool_1): AvgPool2d(kernel_size=(1, 4), stride=(1, 4), padding=0)
    (drop_1): Dropout(p=0.25, inplace=False)
    (conv_separable_depth): Conv2d(16, 16, kernel_size=(1, 16), stride=(1, 1), padding=(0, 8), groups=16, bias=False)
    (conv_separable_point): Conv2d(16, 16, kernel_size=(1, 1), stride=(1, 1), bias=False)
    (bnorm_2): BatchNorm2d(16, eps=0.001, momentum=0.01, affine=True, track_running_stats=True)
    (elu_2): Expression(expression=elu) 
    (pool_2): AvgPool2d(kernel_size=(1, 8), stride=(1, 8), padding=0)
    (drop_2): Dropout(p=0.25, inplace=False)
    (conv_classifier): Conv2d(16, 4, kernel_size=(1, 35), stride=(1, 1))
    (softmax): LogSoftmax(dim=1)
    (permute_back): Expression(expression=_transpose_1_0) 
    (squeeze): Expression(expression=squeeze_final_output) 
  ),
)
<class 'braindecode.classifier.EEGClassifier'>[uninitialized](
  module=EEGNetv4(
    (ensuredims): Ensure4d()
    (dimshuffle): Expression(expression=_transpose_to_b_1_c_0) 
    (conv_temporal): Conv2d(1, 8, kernel_size=(1, 64), stride=(1, 1), padding=(0, 32), bias=False)
    (bnorm_temporal): BatchNorm2d(8, eps=0.001, momentum=0.01, affine=True, track_running_stats=True)
    (conv_spatial): Conv2dWithConstraint(8, 16, kernel_size=(22, 1), stride=(1, 1), groups=8, bias=False)
    (bnorm_1): BatchNorm2d(16, eps=0.001, momentum=0.01, affine=True, track_running_stats=True)
    (elu_1): Expression(expression=elu) 
    (pool_1): AvgPool2d(kernel_size=(1, 4), stride=(1, 4), padding=0)
    (drop_1): Dropout(p=0.25, inplace=False)
    (conv_separable_depth): Conv2d(16, 16, kernel_size=(1, 16), stride=(1, 1), padding=(0, 8), groups=16, bias=False)
    (conv_separable_point): Conv2d(16, 16, kernel_size=(1, 1), stride=(1, 1), bias=False)
    (bnorm_2): BatchNorm2d(16, eps=0.001, momentum=0.01, affine=True, track_running_stats=True)
    (elu_2): Expression(expression=elu) 
    (pool_2): AvgPool2d(kernel_size=(1, 8), stride=(1, 8), padding=0)
    (drop_2): Dropout(p=0.25, inplace=False)
    (conv_classifier): Conv2d(16, 4, kernel_size=(1, 35), stride=(1, 1))
    (softmax): LogSoftmax(dim=1)
    (permute_back): Expression(expression=_transpose_1_0) 
    (squeeze): Expression(expression=squeeze_final_output) 
  ),
)
<class 'braindecode.classifier.EEGClassifier'>[uninitialized](
  module=EEGNetv4(
    (ensuredims): Ensure4d()
    (dimshuffle): Expression(expression=_transpose_to_b_1_c_0) 
    (conv_temporal): Conv2d(1, 8, kernel_size=(1, 64), stride=(1, 1), padding=(0, 32), bias=False)
    (bnorm_temporal): BatchNorm2d(8, eps=0.001, momentum=0.01, affine=True, track_running_stats=True)
    (conv_spatial): Conv2dWithConstraint(8, 16, kernel_size=(22, 1), stride=(1, 1), groups=8, bias=False)
    (bnorm_1): BatchNorm2d(16, eps=0.001, momentum=0.01, affine=True, track_running_stats=True)
    (elu_1): Expression(expression=elu) 
    (pool_1): AvgPool2d(kernel_size=(1, 4), stride=(1, 4), padding=0)
    (drop_1): Dropout(p=0.25, inplace=False)
    (conv_separable_depth): Conv2d(16, 16, kernel_size=(1, 16), stride=(1, 1), padding=(0, 8), groups=16, bias=False)
    (conv_separable_point): Conv2d(16, 16, kernel_size=(1, 1), stride=(1, 1), bias=False)
    (bnorm_2): BatchNorm2d(16, eps=0.001, momentum=0.01, affine=True, track_running_stats=True)
    (elu_2): Expression(expression=elu) 
    (pool_2): AvgPool2d(kernel_size=(1, 8), stride=(1, 8), padding=0)
    (drop_2): Dropout(p=0.25, inplace=False)
    (conv_classifier): Conv2d(16, 4, kernel_size=(1, 35), stride=(1, 1))
    (softmax): LogSoftmax(dim=1)
    (permute_back): Expression(expression=_transpose_1_0) 
    (squeeze): Expression(expression=squeeze_final_output) 
  ),
)
<class 'braindecode.classifier.EEGClassifier'>[uninitialized](
  module=EEGNetv4(
    (ensuredims): Ensure4d()
    (dimshuffle): Expression(expression=_transpose_to_b_1_c_0) 
    (conv_temporal): Conv2d(1, 8, kernel_size=(1, 64), stride=(1, 1), padding=(0, 32), bias=False)
    (bnorm_temporal): BatchNorm2d(8, eps=0.001, momentum=0.01, affine=True, track_running_stats=True)
    (conv_spatial): Conv2dWithConstraint(8, 16, kernel_size=(22, 1), stride=(1, 1), groups=8, bias=False)
    (bnorm_1): BatchNorm2d(16, eps=0.001, momentum=0.01, affine=True, track_running_stats=True)
    (elu_1): Expression(expression=elu) 
    (pool_1): AvgPool2d(kernel_size=(1, 4), stride=(1, 4), padding=0)
    (drop_1): Dropout(p=0.25, inplace=False)
    (conv_separable_depth): Conv2d(16, 16, kernel_size=(1, 16), stride=(1, 1), padding=(0, 8), groups=16, bias=False)
    (conv_separable_point): Conv2d(16, 16, kernel_size=(1, 1), stride=(1, 1), bias=False)
    (bnorm_2): BatchNorm2d(16, eps=0.001, momentum=0.01, affine=True, track_running_stats=True)
    (elu_2): Expression(expression=elu) 
    (pool_2): AvgPool2d(kernel_size=(1, 8), stride=(1, 8), padding=0)
    (drop_2): Dropout(p=0.25, inplace=False)
    (conv_classifier): Conv2d(16, 4, kernel_size=(1, 35), stride=(1, 1))
    (softmax): LogSoftmax(dim=1)
    (permute_back): Expression(expression=_transpose_1_0) 
    (squeeze): Expression(expression=squeeze_final_output) 
  ),
)
<class 'braindecode.classifier.EEGClassifier'>[uninitialized](
  module=EEGNetv4(
    (ensuredims): Ensure4d()
    (dimshuffle): Expression(expression=_transpose_to_b_1_c_0) 
    (conv_temporal): Conv2d(1, 8, kernel_size=(1, 64), stride=(1, 1), padding=(0, 32), bias=False)
    (bnorm_temporal): BatchNorm2d(8, eps=0.001, momentum=0.01, affine=True, track_running_stats=True)
    (conv_spatial): Conv2dWithConstraint(8, 16, kernel_size=(22, 1), stride=(1, 1), groups=8, bias=False)
    (bnorm_1): BatchNorm2d(16, eps=0.001, momentum=0.01, affine=True, track_running_stats=True)
    (elu_1): Expression(expression=elu) 
    (pool_1): AvgPool2d(kernel_size=(1, 4), stride=(1, 4), padding=0)
    (drop_1): Dropout(p=0.25, inplace=False)
    (conv_separable_depth): Conv2d(16, 16, kernel_size=(1, 16), stride=(1, 1), padding=(0, 8), groups=16, bias=False)
    (conv_separable_point): Conv2d(16, 16, kernel_size=(1, 1), stride=(1, 1), bias=False)
    (bnorm_2): BatchNorm2d(16, eps=0.001, momentum=0.01, affine=True, track_running_stats=True)
    (elu_2): Expression(expression=elu) 
    (pool_2): AvgPool2d(kernel_size=(1, 8), stride=(1, 8), padding=0)
    (drop_2): Dropout(p=0.25, inplace=False)
    (conv_classifier): Conv2d(16, 4, kernel_size=(1, 35), stride=(1, 1))
    (softmax): LogSoftmax(dim=1)
    (permute_back): Expression(expression=_transpose_1_0) 
    (squeeze): Expression(expression=squeeze_final_output) 
  ),
)
<class 'braindecode.classifier.EEGClassifier'>[uninitialized](
  module=EEGNetv4(
    (ensuredims): Ensure4d()
    (dimshuffle): Expression(expression=_transpose_to_b_1_c_0) 
    (conv_temporal): Conv2d(1, 8, kernel_size=(1, 64), stride=(1, 1), padding=(0, 32), bias=False)
    (bnorm_temporal): BatchNorm2d(8, eps=0.001, momentum=0.01, affine=True, track_running_stats=True)
    (conv_spatial): Conv2dWithConstraint(8, 16, kernel_size=(22, 1), stride=(1, 1), groups=8, bias=False)
    (bnorm_1): BatchNorm2d(16, eps=0.001, momentum=0.01, affine=True, track_running_stats=True)
    (elu_1): Expression(expression=elu) 
    (pool_1): AvgPool2d(kernel_size=(1, 4), stride=(1, 4), padding=0)
    (drop_1): Dropout(p=0.25, inplace=False)
    (conv_separable_depth): Conv2d(16, 16, kernel_size=(1, 16), stride=(1, 1), padding=(0, 8), groups=16, bias=False)
    (conv_separable_point): Conv2d(16, 16, kernel_size=(1, 1), stride=(1, 1), bias=False)
    (bnorm_2): BatchNorm2d(16, eps=0.001, momentum=0.01, affine=True, track_running_stats=True)
    (elu_2): Expression(expression=elu) 
    (pool_2): AvgPool2d(kernel_size=(1, 8), stride=(1, 8), padding=0)
    (drop_2): Dropout(p=0.25, inplace=False)
    (conv_classifier): Conv2d(16, 4, kernel_size=(1, 35), stride=(1, 1))
    (softmax): LogSoftmax(dim=1)
    (permute_back): Expression(expression=_transpose_1_0) 
    (squeeze): Expression(expression=squeeze_final_output) 
  ),
)
<class 'braindecode.classifier.EEGClassifier'>[uninitialized](
  module=EEGNetv4(
    (ensuredims): Ensure4d()
    (dimshuffle): Expression(expression=_transpose_to_b_1_c_0) 
    (conv_temporal): Conv2d(1, 8, kernel_size=(1, 64), stride=(1, 1), padding=(0, 32), bias=False)
    (bnorm_temporal): BatchNorm2d(8, eps=0.001, momentum=0.01, affine=True, track_running_stats=True)
    (conv_spatial): Conv2dWithConstraint(8, 16, kernel_size=(22, 1), stride=(1, 1), groups=8, bias=False)
    (bnorm_1): BatchNorm2d(16, eps=0.001, momentum=0.01, affine=True, track_running_stats=True)
    (elu_1): Expression(expression=elu) 
    (pool_1): AvgPool2d(kernel_size=(1, 4), stride=(1, 4), padding=0)
    (drop_1): Dropout(p=0.25, inplace=False)
    (conv_separable_depth): Conv2d(16, 16, kernel_size=(1, 16), stride=(1, 1), padding=(0, 8), groups=16, bias=False)
    (conv_separable_point): Conv2d(16, 16, kernel_size=(1, 1), stride=(1, 1), bias=False)
    (bnorm_2): BatchNorm2d(16, eps=0.001, momentum=0.01, affine=True, track_running_stats=True)
    (elu_2): Expression(expression=elu) 
    (pool_2): AvgPool2d(kernel_size=(1, 8), stride=(1, 8), padding=0)
    (drop_2): Dropout(p=0.25, inplace=False)
    (conv_classifier): Conv2d(16, 4, kernel_size=(1, 35), stride=(1, 1))
    (softmax): LogSoftmax(dim=1)
    (permute_back): Expression(expression=_transpose_1_0) 
    (squeeze): Expression(expression=squeeze_final_output) 
  ),
)
<class 'braindecode.classifier.EEGClassifier'>[uninitialized](
  module=EEGNetv4(
    (ensuredims): Ensure4d()
    (dimshuffle): Expression(expression=_transpose_to_b_1_c_0) 
    (conv_temporal): Conv2d(1, 8, kernel_size=(1, 64), stride=(1, 1), padding=(0, 32), bias=False)
    (bnorm_temporal): BatchNorm2d(8, eps=0.001, momentum=0.01, affine=True, track_running_stats=True)
    (conv_spatial): Conv2dWithConstraint(8, 16, kernel_size=(22, 1), stride=(1, 1), groups=8, bias=False)
    (bnorm_1): BatchNorm2d(16, eps=0.001, momentum=0.01, affine=True, track_running_stats=True)
    (elu_1): Expression(expression=elu) 
    (pool_1): AvgPool2d(kernel_size=(1, 4), stride=(1, 4), padding=0)
    (drop_1): Dropout(p=0.25, inplace=False)
    (conv_separable_depth): Conv2d(16, 16, kernel_size=(1, 16), stride=(1, 1), padding=(0, 8), groups=16, bias=False)
    (conv_separable_point): Conv2d(16, 16, kernel_size=(1, 1), stride=(1, 1), bias=False)
    (bnorm_2): BatchNorm2d(16, eps=0.001, momentum=0.01, affine=True, track_running_stats=True)
    (elu_2): Expression(expression=elu) 
    (pool_2): AvgPool2d(kernel_size=(1, 8), stride=(1, 8), padding=0)
    (drop_2): Dropout(p=0.25, inplace=False)
    (conv_classifier): Conv2d(16, 4, kernel_size=(1, 35), stride=(1, 1))
    (softmax): LogSoftmax(dim=1)
    (permute_back): Expression(expression=_transpose_1_0) 
    (squeeze): Expression(expression=squeeze_final_output) 
  ),
)
<class 'braindecode.classifier.EEGClassifier'>[uninitialized](
  module=EEGNetv4(
    (ensuredims): Ensure4d()
    (dimshuffle): Expression(expression=_transpose_to_b_1_c_0) 
    (conv_temporal): Conv2d(1, 8, kernel_size=(1, 64), stride=(1, 1), padding=(0, 32), bias=False)
    (bnorm_temporal): BatchNorm2d(8, eps=0.001, momentum=0.01, affine=True, track_running_stats=True)
    (conv_spatial): Conv2dWithConstraint(8, 16, kernel_size=(22, 1), stride=(1, 1), groups=8, bias=False)
    (bnorm_1): BatchNorm2d(16, eps=0.001, momentum=0.01, affine=True, track_running_stats=True)
    (elu_1): Expression(expression=elu) 
    (pool_1): AvgPool2d(kernel_size=(1, 4), stride=(1, 4), padding=0)
    (drop_1): Dropout(p=0.25, inplace=False)
    (conv_separable_depth): Conv2d(16, 16, kernel_size=(1, 16), stride=(1, 1), padding=(0, 8), groups=16, bias=False)
    (conv_separable_point): Conv2d(16, 16, kernel_size=(1, 1), stride=(1, 1), bias=False)
    (bnorm_2): BatchNorm2d(16, eps=0.001, momentum=0.01, affine=True, track_running_stats=True)
    (elu_2): Expression(expression=elu) 
    (pool_2): AvgPool2d(kernel_size=(1, 8), stride=(1, 8), padding=0)
    (drop_2): Dropout(p=0.25, inplace=False)
    (conv_classifier): Conv2d(16, 4, kernel_size=(1, 35), stride=(1, 1))
    (softmax): LogSoftmax(dim=1)
    (permute_back): Expression(expression=_transpose_1_0) 
    (squeeze): Expression(expression=squeeze_final_output) 
  ),
)
<class 'braindecode.classifier.EEGClassifier'>[uninitialized](
  module=EEGNetv4(
    (ensuredims): Ensure4d()
    (dimshuffle): Expression(expression=_transpose_to_b_1_c_0) 
    (conv_temporal): Conv2d(1, 8, kernel_size=(1, 64), stride=(1, 1), padding=(0, 32), bias=False)
    (bnorm_temporal): BatchNorm2d(8, eps=0.001, momentum=0.01, affine=True, track_running_stats=True)
    (conv_spatial): Conv2dWithConstraint(8, 16, kernel_size=(22, 1), stride=(1, 1), groups=8, bias=False)
    (bnorm_1): BatchNorm2d(16, eps=0.001, momentum=0.01, affine=True, track_running_stats=True)
    (elu_1): Expression(expression=elu) 
    (pool_1): AvgPool2d(kernel_size=(1, 4), stride=(1, 4), padding=0)
    (drop_1): Dropout(p=0.25, inplace=False)
    (conv_separable_depth): Conv2d(16, 16, kernel_size=(1, 16), stride=(1, 1), padding=(0, 8), groups=16, bias=False)
    (conv_separable_point): Conv2d(16, 16, kernel_size=(1, 1), stride=(1, 1), bias=False)
    (bnorm_2): BatchNorm2d(16, eps=0.001, momentum=0.01, affine=True, track_running_stats=True)
    (elu_2): Expression(expression=elu) 
    (pool_2): AvgPool2d(kernel_size=(1, 8), stride=(1, 8), padding=0)
    (drop_2): Dropout(p=0.25, inplace=False)
    (conv_classifier): Conv2d(16, 4, kernel_size=(1, 35), stride=(1, 1))
    (softmax): LogSoftmax(dim=1)
    (permute_back): Expression(expression=_transpose_1_0) 
    (squeeze): Expression(expression=squeeze_final_output) 
  ),
)
<class 'braindecode.classifier.EEGClassifier'>[uninitialized](
  module=EEGNetv4(
    (ensuredims): Ensure4d()
    (dimshuffle): Expression(expression=_transpose_to_b_1_c_0) 
    (conv_temporal): Conv2d(1, 8, kernel_size=(1, 64), stride=(1, 1), padding=(0, 32), bias=False)
    (bnorm_temporal): BatchNorm2d(8, eps=0.001, momentum=0.01, affine=True, track_running_stats=True)
    (conv_spatial): Conv2dWithConstraint(8, 16, kernel_size=(22, 1), stride=(1, 1), groups=8, bias=False)
    (bnorm_1): BatchNorm2d(16, eps=0.001, momentum=0.01, affine=True, track_running_stats=True)
    (elu_1): Expression(expression=elu) 
    (pool_1): AvgPool2d(kernel_size=(1, 4), stride=(1, 4), padding=0)
    (drop_1): Dropout(p=0.25, inplace=False)
    (conv_separable_depth): Conv2d(16, 16, kernel_size=(1, 16), stride=(1, 1), padding=(0, 8), groups=16, bias=False)
    (conv_separable_point): Conv2d(16, 16, kernel_size=(1, 1), stride=(1, 1), bias=False)
    (bnorm_2): BatchNorm2d(16, eps=0.001, momentum=0.01, affine=True, track_running_stats=True)
    (elu_2): Expression(expression=elu) 
    (pool_2): AvgPool2d(kernel_size=(1, 8), stride=(1, 8), padding=0)
    (drop_2): Dropout(p=0.25, inplace=False)
    (conv_classifier): Conv2d(16, 4, kernel_size=(1, 35), stride=(1, 1))
    (softmax): LogSoftmax(dim=1)
    (permute_back): Expression(expression=_transpose_1_0) 
    (squeeze): Expression(expression=squeeze_final_output) 
  ),
)
<class 'braindecode.classifier.EEGClassifier'>[uninitialized](
  module=EEGNetv4(
    (ensuredims): Ensure4d()
    (dimshuffle): Expression(expression=_transpose_to_b_1_c_0) 
    (conv_temporal): Conv2d(1, 8, kernel_size=(1, 64), stride=(1, 1), padding=(0, 32), bias=False)
    (bnorm_temporal): BatchNorm2d(8, eps=0.001, momentum=0.01, affine=True, track_running_stats=True)
    (conv_spatial): Conv2dWithConstraint(8, 16, kernel_size=(22, 1), stride=(1, 1), groups=8, bias=False)
    (bnorm_1): BatchNorm2d(16, eps=0.001, momentum=0.01, affine=True, track_running_stats=True)
    (elu_1): Expression(expression=elu) 
    (pool_1): AvgPool2d(kernel_size=(1, 4), stride=(1, 4), padding=0)
    (drop_1): Dropout(p=0.25, inplace=False)
    (conv_separable_depth): Conv2d(16, 16, kernel_size=(1, 16), stride=(1, 1), padding=(0, 8), groups=16, bias=False)
    (conv_separable_point): Conv2d(16, 16, kernel_size=(1, 1), stride=(1, 1), bias=False)
    (bnorm_2): BatchNorm2d(16, eps=0.001, momentum=0.01, affine=True, track_running_stats=True)
    (elu_2): Expression(expression=elu) 
    (pool_2): AvgPool2d(kernel_size=(1, 8), stride=(1, 8), padding=0)
    (drop_2): Dropout(p=0.25, inplace=False)
    (conv_classifier): Conv2d(16, 4, kernel_size=(1, 35), stride=(1, 1))
    (softmax): LogSoftmax(dim=1)
    (permute_back): Expression(expression=_transpose_1_0) 
    (squeeze): Expression(expression=squeeze_final_output) 
  ),
)
<class 'braindecode.classifier.EEGClassifier'>[uninitialized](
  module=EEGNetv4(
    (ensuredims): Ensure4d()
    (dimshuffle): Expression(expression=_transpose_to_b_1_c_0) 
    (conv_temporal): Conv2d(1, 8, kernel_size=(1, 64), stride=(1, 1), padding=(0, 32), bias=False)
    (bnorm_temporal): BatchNorm2d(8, eps=0.001, momentum=0.01, affine=True, track_running_stats=True)
    (conv_spatial): Conv2dWithConstraint(8, 16, kernel_size=(22, 1), stride=(1, 1), groups=8, bias=False)
    (bnorm_1): BatchNorm2d(16, eps=0.001, momentum=0.01, affine=True, track_running_stats=True)
    (elu_1): Expression(expression=elu) 
    (pool_1): AvgPool2d(kernel_size=(1, 4), stride=(1, 4), padding=0)
    (drop_1): Dropout(p=0.25, inplace=False)
    (conv_separable_depth): Conv2d(16, 16, kernel_size=(1, 16), stride=(1, 1), padding=(0, 8), groups=16, bias=False)
    (conv_separable_point): Conv2d(16, 16, kernel_size=(1, 1), stride=(1, 1), bias=False)
    (bnorm_2): BatchNorm2d(16, eps=0.001, momentum=0.01, affine=True, track_running_stats=True)
    (elu_2): Expression(expression=elu) 
    (pool_2): AvgPool2d(kernel_size=(1, 8), stride=(1, 8), padding=0)
    (drop_2): Dropout(p=0.25, inplace=False)
    (conv_classifier): Conv2d(16, 4, kernel_size=(1, 35), stride=(1, 1))
    (softmax): LogSoftmax(dim=1)
    (permute_back): Expression(expression=_transpose_1_0) 
    (squeeze): Expression(expression=squeeze_final_output) 
  ),
)
<class 'braindecode.classifier.EEGClassifier'>[uninitialized](
  module=EEGNetv4(
    (ensuredims): Ensure4d()
    (dimshuffle): Expression(expression=_transpose_to_b_1_c_0) 
    (conv_temporal): Conv2d(1, 8, kernel_size=(1, 64), stride=(1, 1), padding=(0, 32), bias=False)
    (bnorm_temporal): BatchNorm2d(8, eps=0.001, momentum=0.01, affine=True, track_running_stats=True)
    (conv_spatial): Conv2dWithConstraint(8, 16, kernel_size=(22, 1), stride=(1, 1), groups=8, bias=False)
    (bnorm_1): BatchNorm2d(16, eps=0.001, momentum=0.01, affine=True, track_running_stats=True)
    (elu_1): Expression(expression=elu) 
    (pool_1): AvgPool2d(kernel_size=(1, 4), stride=(1, 4), padding=0)
    (drop_1): Dropout(p=0.25, inplace=False)
    (conv_separable_depth): Conv2d(16, 16, kernel_size=(1, 16), stride=(1, 1), padding=(0, 8), groups=16, bias=False)
    (conv_separable_point): Conv2d(16, 16, kernel_size=(1, 1), stride=(1, 1), bias=False)
    (bnorm_2): BatchNorm2d(16, eps=0.001, momentum=0.01, affine=True, track_running_stats=True)
    (elu_2): Expression(expression=elu) 
    (pool_2): AvgPool2d(kernel_size=(1, 8), stride=(1, 8), padding=0)
    (drop_2): Dropout(p=0.25, inplace=False)
    (conv_classifier): Conv2d(16, 4, kernel_size=(1, 35), stride=(1, 1))
    (softmax): LogSoftmax(dim=1)
    (permute_back): Expression(expression=_transpose_1_0) 
    (squeeze): Expression(expression=squeeze_final_output) 
  ),
)
<class 'braindecode.classifier.EEGClassifier'>[uninitialized](
  module=EEGNetv4(
    (ensuredims): Ensure4d()
    (dimshuffle): Expression(expression=_transpose_to_b_1_c_0) 
    (conv_temporal): Conv2d(1, 8, kernel_size=(1, 64), stride=(1, 1), padding=(0, 32), bias=False)
    (bnorm_temporal): BatchNorm2d(8, eps=0.001, momentum=0.01, affine=True, track_running_stats=True)
    (conv_spatial): Conv2dWithConstraint(8, 16, kernel_size=(22, 1), stride=(1, 1), groups=8, bias=False)
    (bnorm_1): BatchNorm2d(16, eps=0.001, momentum=0.01, affine=True, track_running_stats=True)
    (elu_1): Expression(expression=elu) 
    (pool_1): AvgPool2d(kernel_size=(1, 4), stride=(1, 4), padding=0)
    (drop_1): Dropout(p=0.25, inplace=False)
    (conv_separable_depth): Conv2d(16, 16, kernel_size=(1, 16), stride=(1, 1), padding=(0, 8), groups=16, bias=False)
    (conv_separable_point): Conv2d(16, 16, kernel_size=(1, 1), stride=(1, 1), bias=False)
    (bnorm_2): BatchNorm2d(16, eps=0.001, momentum=0.01, affine=True, track_running_stats=True)
    (elu_2): Expression(expression=elu) 
    (pool_2): AvgPool2d(kernel_size=(1, 8), stride=(1, 8), padding=0)
    (drop_2): Dropout(p=0.25, inplace=False)
    (conv_classifier): Conv2d(16, 4, kernel_size=(1, 35), stride=(1, 1))
    (softmax): LogSoftmax(dim=1)
    (permute_back): Expression(expression=_transpose_1_0) 
    (squeeze): Expression(expression=squeeze_final_output) 
  ),
)
<class 'braindecode.classifier.EEGClassifier'>[uninitialized](
  module=EEGNetv4(
    (ensuredims): Ensure4d()
    (dimshuffle): Expression(expression=_transpose_to_b_1_c_0) 
    (conv_temporal): Conv2d(1, 8, kernel_size=(1, 64), stride=(1, 1), padding=(0, 32), bias=False)
    (bnorm_temporal): BatchNorm2d(8, eps=0.001, momentum=0.01, affine=True, track_running_stats=True)
    (conv_spatial): Conv2dWithConstraint(8, 16, kernel_size=(22, 1), stride=(1, 1), groups=8, bias=False)
    (bnorm_1): BatchNorm2d(16, eps=0.001, momentum=0.01, affine=True, track_running_stats=True)
    (elu_1): Expression(expression=elu) 
    (pool_1): AvgPool2d(kernel_size=(1, 4), stride=(1, 4), padding=0)
    (drop_1): Dropout(p=0.25, inplace=False)
    (conv_separable_depth): Conv2d(16, 16, kernel_size=(1, 16), stride=(1, 1), padding=(0, 8), groups=16, bias=False)
    (conv_separable_point): Conv2d(16, 16, kernel_size=(1, 1), stride=(1, 1), bias=False)
    (bnorm_2): BatchNorm2d(16, eps=0.001, momentum=0.01, affine=True, track_running_stats=True)
    (elu_2): Expression(expression=elu) 
    (pool_2): AvgPool2d(kernel_size=(1, 8), stride=(1, 8), padding=0)
    (drop_2): Dropout(p=0.25, inplace=False)
    (conv_classifier): Conv2d(16, 4, kernel_size=(1, 35), stride=(1, 1))
    (softmax): LogSoftmax(dim=1)
    (permute_back): Expression(expression=_transpose_1_0) 
    (squeeze): Expression(expression=squeeze_final_output) 
  ),
)
<class 'braindecode.classifier.EEGClassifier'>[uninitialized](
  module=EEGNetv4(
    (ensuredims): Ensure4d()
    (dimshuffle): Expression(expression=_transpose_to_b_1_c_0) 
    (conv_temporal): Conv2d(1, 8, kernel_size=(1, 64), stride=(1, 1), padding=(0, 32), bias=False)
    (bnorm_temporal): BatchNorm2d(8, eps=0.001, momentum=0.01, affine=True, track_running_stats=True)
    (conv_spatial): Conv2dWithConstraint(8, 16, kernel_size=(22, 1), stride=(1, 1), groups=8, bias=False)
    (bnorm_1): BatchNorm2d(16, eps=0.001, momentum=0.01, affine=True, track_running_stats=True)
    (elu_1): Expression(expression=elu) 
    (pool_1): AvgPool2d(kernel_size=(1, 4), stride=(1, 4), padding=0)
    (drop_1): Dropout(p=0.25, inplace=False)
    (conv_separable_depth): Conv2d(16, 16, kernel_size=(1, 16), stride=(1, 1), padding=(0, 8), groups=16, bias=False)
    (conv_separable_point): Conv2d(16, 16, kernel_size=(1, 1), stride=(1, 1), bias=False)
    (bnorm_2): BatchNorm2d(16, eps=0.001, momentum=0.01, affine=True, track_running_stats=True)
    (elu_2): Expression(expression=elu) 
    (pool_2): AvgPool2d(kernel_size=(1, 8), stride=(1, 8), padding=0)
    (drop_2): Dropout(p=0.25, inplace=False)
    (conv_classifier): Conv2d(16, 4, kernel_size=(1, 35), stride=(1, 1))
    (softmax): LogSoftmax(dim=1)
    (permute_back): Expression(expression=_transpose_1_0) 
    (squeeze): Expression(expression=squeeze_final_output) 
  ),
)
<class 'braindecode.classifier.EEGClassifier'>[uninitialized](
  module=EEGNetv4(
    (ensuredims): Ensure4d()
    (dimshuffle): Expression(expression=_transpose_to_b_1_c_0) 
    (conv_temporal): Conv2d(1, 8, kernel_size=(1, 64), stride=(1, 1), padding=(0, 32), bias=False)
    (bnorm_temporal): BatchNorm2d(8, eps=0.001, momentum=0.01, affine=True, track_running_stats=True)
    (conv_spatial): Conv2dWithConstraint(8, 16, kernel_size=(22, 1), stride=(1, 1), groups=8, bias=False)
    (bnorm_1): BatchNorm2d(16, eps=0.001, momentum=0.01, affine=True, track_running_stats=True)
    (elu_1): Expression(expression=elu) 
    (pool_1): AvgPool2d(kernel_size=(1, 4), stride=(1, 4), padding=0)
    (drop_1): Dropout(p=0.25, inplace=False)
    (conv_separable_depth): Conv2d(16, 16, kernel_size=(1, 16), stride=(1, 1), padding=(0, 8), groups=16, bias=False)
    (conv_separable_point): Conv2d(16, 16, kernel_size=(1, 1), stride=(1, 1), bias=False)
    (bnorm_2): BatchNorm2d(16, eps=0.001, momentum=0.01, affine=True, track_running_stats=True)
    (elu_2): Expression(expression=elu) 
    (pool_2): AvgPool2d(kernel_size=(1, 8), stride=(1, 8), padding=0)
    (drop_2): Dropout(p=0.25, inplace=False)
    (conv_classifier): Conv2d(16, 4, kernel_size=(1, 35), stride=(1, 1))
    (softmax): LogSoftmax(dim=1)
    (permute_back): Expression(expression=_transpose_1_0) 
    (squeeze): Expression(expression=squeeze_final_output) 
  ),
)
<class 'braindecode.classifier.EEGClassifier'>[uninitialized](
  module=EEGNetv4(
    (ensuredims): Ensure4d()
    (dimshuffle): Expression(expression=_transpose_to_b_1_c_0) 
    (conv_temporal): Conv2d(1, 8, kernel_size=(1, 64), stride=(1, 1), padding=(0, 32), bias=False)
    (bnorm_temporal): BatchNorm2d(8, eps=0.001, momentum=0.01, affine=True, track_running_stats=True)
    (conv_spatial): Conv2dWithConstraint(8, 16, kernel_size=(22, 1), stride=(1, 1), groups=8, bias=False)
    (bnorm_1): BatchNorm2d(16, eps=0.001, momentum=0.01, affine=True, track_running_stats=True)
    (elu_1): Expression(expression=elu) 
    (pool_1): AvgPool2d(kernel_size=(1, 4), stride=(1, 4), padding=0)
    (drop_1): Dropout(p=0.25, inplace=False)
    (conv_separable_depth): Conv2d(16, 16, kernel_size=(1, 16), stride=(1, 1), padding=(0, 8), groups=16, bias=False)
    (conv_separable_point): Conv2d(16, 16, kernel_size=(1, 1), stride=(1, 1), bias=False)
    (bnorm_2): BatchNorm2d(16, eps=0.001, momentum=0.01, affine=True, track_running_stats=True)
    (elu_2): Expression(expression=elu) 
    (pool_2): AvgPool2d(kernel_size=(1, 8), stride=(1, 8), padding=0)
    (drop_2): Dropout(p=0.25, inplace=False)
    (conv_classifier): Conv2d(16, 4, kernel_size=(1, 35), stride=(1, 1))
    (softmax): LogSoftmax(dim=1)
    (permute_back): Expression(expression=_transpose_1_0) 
    (squeeze): Expression(expression=squeeze_final_output) 
  ),
)
<class 'braindecode.classifier.EEGClassifier'>[uninitialized](
  module=EEGNetv4(
    (ensuredims): Ensure4d()
    (dimshuffle): Expression(expression=_transpose_to_b_1_c_0) 
    (conv_temporal): Conv2d(1, 8, kernel_size=(1, 64), stride=(1, 1), padding=(0, 32), bias=False)
    (bnorm_temporal): BatchNorm2d(8, eps=0.001, momentum=0.01, affine=True, track_running_stats=True)
    (conv_spatial): Conv2dWithConstraint(8, 16, kernel_size=(22, 1), stride=(1, 1), groups=8, bias=False)
    (bnorm_1): BatchNorm2d(16, eps=0.001, momentum=0.01, affine=True, track_running_stats=True)
    (elu_1): Expression(expression=elu) 
    (pool_1): AvgPool2d(kernel_size=(1, 4), stride=(1, 4), padding=0)
    (drop_1): Dropout(p=0.25, inplace=False)
    (conv_separable_depth): Conv2d(16, 16, kernel_size=(1, 16), stride=(1, 1), padding=(0, 8), groups=16, bias=False)
    (conv_separable_point): Conv2d(16, 16, kernel_size=(1, 1), stride=(1, 1), bias=False)
    (bnorm_2): BatchNorm2d(16, eps=0.001, momentum=0.01, affine=True, track_running_stats=True)
    (elu_2): Expression(expression=elu) 
    (pool_2): AvgPool2d(kernel_size=(1, 8), stride=(1, 8), padding=0)
    (drop_2): Dropout(p=0.25, inplace=False)
    (conv_classifier): Conv2d(16, 4, kernel_size=(1, 35), stride=(1, 1))
    (softmax): LogSoftmax(dim=1)
    (permute_back): Expression(expression=_transpose_1_0) 
    (squeeze): Expression(expression=squeeze_final_output) 
  ),
)
<class 'braindecode.classifier.EEGClassifier'>[uninitialized](
  module=EEGNetv4(
    (ensuredims): Ensure4d()
    (dimshuffle): Expression(expression=_transpose_to_b_1_c_0) 
    (conv_temporal): Conv2d(1, 8, kernel_size=(1, 64), stride=(1, 1), padding=(0, 32), bias=False)
    (bnorm_temporal): BatchNorm2d(8, eps=0.001, momentum=0.01, affine=True, track_running_stats=True)
    (conv_spatial): Conv2dWithConstraint(8, 16, kernel_size=(22, 1), stride=(1, 1), groups=8, bias=False)
    (bnorm_1): BatchNorm2d(16, eps=0.001, momentum=0.01, affine=True, track_running_stats=True)
    (elu_1): Expression(expression=elu) 
    (pool_1): AvgPool2d(kernel_size=(1, 4), stride=(1, 4), padding=0)
    (drop_1): Dropout(p=0.25, inplace=False)
    (conv_separable_depth): Conv2d(16, 16, kernel_size=(1, 16), stride=(1, 1), padding=(0, 8), groups=16, bias=False)
    (conv_separable_point): Conv2d(16, 16, kernel_size=(1, 1), stride=(1, 1), bias=False)
    (bnorm_2): BatchNorm2d(16, eps=0.001, momentum=0.01, affine=True, track_running_stats=True)
    (elu_2): Expression(expression=elu) 
    (pool_2): AvgPool2d(kernel_size=(1, 8), stride=(1, 8), padding=0)
    (drop_2): Dropout(p=0.25, inplace=False)
    (conv_classifier): Conv2d(16, 4, kernel_size=(1, 35), stride=(1, 1))
    (softmax): LogSoftmax(dim=1)
    (permute_back): Expression(expression=_transpose_1_0) 
    (squeeze): Expression(expression=squeeze_final_output) 
  ),
)
<class 'braindecode.classifier.EEGClassifier'>[uninitialized](
  module=EEGNetv4(
    (ensuredims): Ensure4d()
    (dimshuffle): Expression(expression=_transpose_to_b_1_c_0) 
    (conv_temporal): Conv2d(1, 8, kernel_size=(1, 64), stride=(1, 1), padding=(0, 32), bias=False)
    (bnorm_temporal): BatchNorm2d(8, eps=0.001, momentum=0.01, affine=True, track_running_stats=True)
    (conv_spatial): Conv2dWithConstraint(8, 16, kernel_size=(22, 1), stride=(1, 1), groups=8, bias=False)
    (bnorm_1): BatchNorm2d(16, eps=0.001, momentum=0.01, affine=True, track_running_stats=True)
    (elu_1): Expression(expression=elu) 
    (pool_1): AvgPool2d(kernel_size=(1, 4), stride=(1, 4), padding=0)
    (drop_1): Dropout(p=0.25, inplace=False)
    (conv_separable_depth): Conv2d(16, 16, kernel_size=(1, 16), stride=(1, 1), padding=(0, 8), groups=16, bias=False)
    (conv_separable_point): Conv2d(16, 16, kernel_size=(1, 1), stride=(1, 1), bias=False)
    (bnorm_2): BatchNorm2d(16, eps=0.001, momentum=0.01, affine=True, track_running_stats=True)
    (elu_2): Expression(expression=elu) 
    (pool_2): AvgPool2d(kernel_size=(1, 8), stride=(1, 8), padding=0)
    (drop_2): Dropout(p=0.25, inplace=False)
    (conv_classifier): Conv2d(16, 4, kernel_size=(1, 35), stride=(1, 1))
    (softmax): LogSoftmax(dim=1)
    (permute_back): Expression(expression=_transpose_1_0) 
    (squeeze): Expression(expression=squeeze_final_output) 
  ),
)
<class 'braindecode.classifier.EEGClassifier'>[uninitialized](
  module=EEGNetv4(
    (ensuredims): Ensure4d()
    (dimshuffle): Expression(expression=_transpose_to_b_1_c_0) 
    (conv_temporal): Conv2d(1, 8, kernel_size=(1, 64), stride=(1, 1), padding=(0, 32), bias=False)
    (bnorm_temporal): BatchNorm2d(8, eps=0.001, momentum=0.01, affine=True, track_running_stats=True)
    (conv_spatial): Conv2dWithConstraint(8, 16, kernel_size=(22, 1), stride=(1, 1), groups=8, bias=False)
    (bnorm_1): BatchNorm2d(16, eps=0.001, momentum=0.01, affine=True, track_running_stats=True)
    (elu_1): Expression(expression=elu) 
    (pool_1): AvgPool2d(kernel_size=(1, 4), stride=(1, 4), padding=0)
    (drop_1): Dropout(p=0.25, inplace=False)
    (conv_separable_depth): Conv2d(16, 16, kernel_size=(1, 16), stride=(1, 1), padding=(0, 8), groups=16, bias=False)
    (conv_separable_point): Conv2d(16, 16, kernel_size=(1, 1), stride=(1, 1), bias=False)
    (bnorm_2): BatchNorm2d(16, eps=0.001, momentum=0.01, affine=True, track_running_stats=True)
    (elu_2): Expression(expression=elu) 
    (pool_2): AvgPool2d(kernel_size=(1, 8), stride=(1, 8), padding=0)
    (drop_2): Dropout(p=0.25, inplace=False)
    (conv_classifier): Conv2d(16, 4, kernel_size=(1, 35), stride=(1, 1))
    (softmax): LogSoftmax(dim=1)
    (permute_back): Expression(expression=_transpose_1_0) 
    (squeeze): Expression(expression=squeeze_final_output) 
  ),
)
<class 'braindecode.classifier.EEGClassifier'>[uninitialized](
  module=EEGNetv4(
    (ensuredims): Ensure4d()
    (dimshuffle): Expression(expression=_transpose_to_b_1_c_0) 
    (conv_temporal): Conv2d(1, 8, kernel_size=(1, 64), stride=(1, 1), padding=(0, 32), bias=False)
    (bnorm_temporal): BatchNorm2d(8, eps=0.001, momentum=0.01, affine=True, track_running_stats=True)
    (conv_spatial): Conv2dWithConstraint(8, 16, kernel_size=(22, 1), stride=(1, 1), groups=8, bias=False)
    (bnorm_1): BatchNorm2d(16, eps=0.001, momentum=0.01, affine=True, track_running_stats=True)
    (elu_1): Expression(expression=elu) 
    (pool_1): AvgPool2d(kernel_size=(1, 4), stride=(1, 4), padding=0)
    (drop_1): Dropout(p=0.25, inplace=False)
    (conv_separable_depth): Conv2d(16, 16, kernel_size=(1, 16), stride=(1, 1), padding=(0, 8), groups=16, bias=False)
    (conv_separable_point): Conv2d(16, 16, kernel_size=(1, 1), stride=(1, 1), bias=False)
    (bnorm_2): BatchNorm2d(16, eps=0.001, momentum=0.01, affine=True, track_running_stats=True)
    (elu_2): Expression(expression=elu) 
    (pool_2): AvgPool2d(kernel_size=(1, 8), stride=(1, 8), padding=0)
    (drop_2): Dropout(p=0.25, inplace=False)
    (conv_classifier): Conv2d(16, 4, kernel_size=(1, 35), stride=(1, 1))
    (softmax): LogSoftmax(dim=1)
    (permute_back): Expression(expression=_transpose_1_0) 
    (squeeze): Expression(expression=squeeze_final_output) 
  ),
)
<class 'braindecode.classifier.EEGClassifier'>[uninitialized](
  module=EEGNetv4(
    (ensuredims): Ensure4d()
    (dimshuffle): Expression(expression=_transpose_to_b_1_c_0) 
    (conv_temporal): Conv2d(1, 8, kernel_size=(1, 64), stride=(1, 1), padding=(0, 32), bias=False)
    (bnorm_temporal): BatchNorm2d(8, eps=0.001, momentum=0.01, affine=True, track_running_stats=True)
    (conv_spatial): Conv2dWithConstraint(8, 16, kernel_size=(22, 1), stride=(1, 1), groups=8, bias=False)
    (bnorm_1): BatchNorm2d(16, eps=0.001, momentum=0.01, affine=True, track_running_stats=True)
    (elu_1): Expression(expression=elu) 
    (pool_1): AvgPool2d(kernel_size=(1, 4), stride=(1, 4), padding=0)
    (drop_1): Dropout(p=0.25, inplace=False)
    (conv_separable_depth): Conv2d(16, 16, kernel_size=(1, 16), stride=(1, 1), padding=(0, 8), groups=16, bias=False)
    (conv_separable_point): Conv2d(16, 16, kernel_size=(1, 1), stride=(1, 1), bias=False)
    (bnorm_2): BatchNorm2d(16, eps=0.001, momentum=0.01, affine=True, track_running_stats=True)
    (elu_2): Expression(expression=elu) 
    (pool_2): AvgPool2d(kernel_size=(1, 8), stride=(1, 8), padding=0)
    (drop_2): Dropout(p=0.25, inplace=False)
    (conv_classifier): Conv2d(16, 4, kernel_size=(1, 35), stride=(1, 1))
    (softmax): LogSoftmax(dim=1)
    (permute_back): Expression(expression=_transpose_1_0) 
    (squeeze): Expression(expression=squeeze_final_output) 
  ),
)
<class 'braindecode.classifier.EEGClassifier'>[uninitialized](
  module=EEGNetv4(
    (ensuredims): Ensure4d()
    (dimshuffle): Expression(expression=_transpose_to_b_1_c_0) 
    (conv_temporal): Conv2d(1, 8, kernel_size=(1, 64), stride=(1, 1), padding=(0, 32), bias=False)
    (bnorm_temporal): BatchNorm2d(8, eps=0.001, momentum=0.01, affine=True, track_running_stats=True)
    (conv_spatial): Conv2dWithConstraint(8, 16, kernel_size=(22, 1), stride=(1, 1), groups=8, bias=False)
    (bnorm_1): BatchNorm2d(16, eps=0.001, momentum=0.01, affine=True, track_running_stats=True)
    (elu_1): Expression(expression=elu) 
    (pool_1): AvgPool2d(kernel_size=(1, 4), stride=(1, 4), padding=0)
    (drop_1): Dropout(p=0.25, inplace=False)
    (conv_separable_depth): Conv2d(16, 16, kernel_size=(1, 16), stride=(1, 1), padding=(0, 8), groups=16, bias=False)
    (conv_separable_point): Conv2d(16, 16, kernel_size=(1, 1), stride=(1, 1), bias=False)
    (bnorm_2): BatchNorm2d(16, eps=0.001, momentum=0.01, affine=True, track_running_stats=True)
    (elu_2): Expression(expression=elu) 
    (pool_2): AvgPool2d(kernel_size=(1, 8), stride=(1, 8), padding=0)
    (drop_2): Dropout(p=0.25, inplace=False)
    (conv_classifier): Conv2d(16, 4, kernel_size=(1, 35), stride=(1, 1))
    (softmax): LogSoftmax(dim=1)
    (permute_back): Expression(expression=_transpose_1_0) 
    (squeeze): Expression(expression=squeeze_final_output) 
  ),
)
<class 'braindecode.classifier.EEGClassifier'>[uninitialized](
  module=EEGNetv4(
    (ensuredims): Ensure4d()
    (dimshuffle): Expression(expression=_transpose_to_b_1_c_0) 
    (conv_temporal): Conv2d(1, 8, kernel_size=(1, 64), stride=(1, 1), padding=(0, 32), bias=False)
    (bnorm_temporal): BatchNorm2d(8, eps=0.001, momentum=0.01, affine=True, track_running_stats=True)
    (conv_spatial): Conv2dWithConstraint(8, 16, kernel_size=(22, 1), stride=(1, 1), groups=8, bias=False)
    (bnorm_1): BatchNorm2d(16, eps=0.001, momentum=0.01, affine=True, track_running_stats=True)
    (elu_1): Expression(expression=elu) 
    (pool_1): AvgPool2d(kernel_size=(1, 4), stride=(1, 4), padding=0)
    (drop_1): Dropout(p=0.25, inplace=False)
    (conv_separable_depth): Conv2d(16, 16, kernel_size=(1, 16), stride=(1, 1), padding=(0, 8), groups=16, bias=False)
    (conv_separable_point): Conv2d(16, 16, kernel_size=(1, 1), stride=(1, 1), bias=False)
    (bnorm_2): BatchNorm2d(16, eps=0.001, momentum=0.01, affine=True, track_running_stats=True)
    (elu_2): Expression(expression=elu) 
    (pool_2): AvgPool2d(kernel_size=(1, 8), stride=(1, 8), padding=0)
    (drop_2): Dropout(p=0.25, inplace=False)
    (conv_classifier): Conv2d(16, 4, kernel_size=(1, 35), stride=(1, 1))
    (softmax): LogSoftmax(dim=1)
    (permute_back): Expression(expression=_transpose_1_0) 
    (squeeze): Expression(expression=squeeze_final_output) 
  ),
)
<class 'braindecode.classifier.EEGClassifier'>[uninitialized](
  module=EEGNetv4(
    (ensuredims): Ensure4d()
    (dimshuffle): Expression(expression=_transpose_to_b_1_c_0) 
    (conv_temporal): Conv2d(1, 8, kernel_size=(1, 64), stride=(1, 1), padding=(0, 32), bias=False)
    (bnorm_temporal): BatchNorm2d(8, eps=0.001, momentum=0.01, affine=True, track_running_stats=True)
    (conv_spatial): Conv2dWithConstraint(8, 16, kernel_size=(22, 1), stride=(1, 1), groups=8, bias=False)
    (bnorm_1): BatchNorm2d(16, eps=0.001, momentum=0.01, affine=True, track_running_stats=True)
    (elu_1): Expression(expression=elu) 
    (pool_1): AvgPool2d(kernel_size=(1, 4), stride=(1, 4), padding=0)
    (drop_1): Dropout(p=0.25, inplace=False)
    (conv_separable_depth): Conv2d(16, 16, kernel_size=(1, 16), stride=(1, 1), padding=(0, 8), groups=16, bias=False)
    (conv_separable_point): Conv2d(16, 16, kernel_size=(1, 1), stride=(1, 1), bias=False)
    (bnorm_2): BatchNorm2d(16, eps=0.001, momentum=0.01, affine=True, track_running_stats=True)
    (elu_2): Expression(expression=elu) 
    (pool_2): AvgPool2d(kernel_size=(1, 8), stride=(1, 8), padding=0)
    (drop_2): Dropout(p=0.25, inplace=False)
    (conv_classifier): Conv2d(16, 4, kernel_size=(1, 35), stride=(1, 1))
    (softmax): LogSoftmax(dim=1)
    (permute_back): Expression(expression=_transpose_1_0) 
    (squeeze): Expression(expression=squeeze_final_output) 
  ),
)
<class 'braindecode.classifier.EEGClassifier'>[uninitialized](
  module=EEGNetv4(
    (ensuredims): Ensure4d()
    (dimshuffle): Expression(expression=_transpose_to_b_1_c_0) 
    (conv_temporal): Conv2d(1, 8, kernel_size=(1, 64), stride=(1, 1), padding=(0, 32), bias=False)
    (bnorm_temporal): BatchNorm2d(8, eps=0.001, momentum=0.01, affine=True, track_running_stats=True)
    (conv_spatial): Conv2dWithConstraint(8, 16, kernel_size=(22, 1), stride=(1, 1), groups=8, bias=False)
    (bnorm_1): BatchNorm2d(16, eps=0.001, momentum=0.01, affine=True, track_running_stats=True)
    (elu_1): Expression(expression=elu) 
    (pool_1): AvgPool2d(kernel_size=(1, 4), stride=(1, 4), padding=0)
    (drop_1): Dropout(p=0.25, inplace=False)
    (conv_separable_depth): Conv2d(16, 16, kernel_size=(1, 16), stride=(1, 1), padding=(0, 8), groups=16, bias=False)
    (conv_separable_point): Conv2d(16, 16, kernel_size=(1, 1), stride=(1, 1), bias=False)
    (bnorm_2): BatchNorm2d(16, eps=0.001, momentum=0.01, affine=True, track_running_stats=True)
    (elu_2): Expression(expression=elu) 
    (pool_2): AvgPool2d(kernel_size=(1, 8), stride=(1, 8), padding=0)
    (drop_2): Dropout(p=0.25, inplace=False)
    (conv_classifier): Conv2d(16, 4, kernel_size=(1, 35), stride=(1, 1))
    (softmax): LogSoftmax(dim=1)
    (permute_back): Expression(expression=_transpose_1_0) 
    (squeeze): Expression(expression=squeeze_final_output) 
  ),
)
<class 'braindecode.classifier.EEGClassifier'>[uninitialized](
  module=EEGNetv4(
    (ensuredims): Ensure4d()
    (dimshuffle): Expression(expression=_transpose_to_b_1_c_0) 
    (conv_temporal): Conv2d(1, 8, kernel_size=(1, 64), stride=(1, 1), padding=(0, 32), bias=False)
    (bnorm_temporal): BatchNorm2d(8, eps=0.001, momentum=0.01, affine=True, track_running_stats=True)
    (conv_spatial): Conv2dWithConstraint(8, 16, kernel_size=(22, 1), stride=(1, 1), groups=8, bias=False)
    (bnorm_1): BatchNorm2d(16, eps=0.001, momentum=0.01, affine=True, track_running_stats=True)
    (elu_1): Expression(expression=elu) 
    (pool_1): AvgPool2d(kernel_size=(1, 4), stride=(1, 4), padding=0)
    (drop_1): Dropout(p=0.25, inplace=False)
    (conv_separable_depth): Conv2d(16, 16, kernel_size=(1, 16), stride=(1, 1), padding=(0, 8), groups=16, bias=False)
    (conv_separable_point): Conv2d(16, 16, kernel_size=(1, 1), stride=(1, 1), bias=False)
    (bnorm_2): BatchNorm2d(16, eps=0.001, momentum=0.01, affine=True, track_running_stats=True)
    (elu_2): Expression(expression=elu) 
    (pool_2): AvgPool2d(kernel_size=(1, 8), stride=(1, 8), padding=0)
    (drop_2): Dropout(p=0.25, inplace=False)
    (conv_classifier): Conv2d(16, 4, kernel_size=(1, 35), stride=(1, 1))
    (softmax): LogSoftmax(dim=1)
    (permute_back): Expression(expression=_transpose_1_0) 
    (squeeze): Expression(expression=squeeze_final_output) 
  ),
)
<class 'braindecode.classifier.EEGClassifier'>[uninitialized](
  module=EEGNetv4(
    (ensuredims): Ensure4d()
    (dimshuffle): Expression(expression=_transpose_to_b_1_c_0) 
    (conv_temporal): Conv2d(1, 8, kernel_size=(1, 64), stride=(1, 1), padding=(0, 32), bias=False)
    (bnorm_temporal): BatchNorm2d(8, eps=0.001, momentum=0.01, affine=True, track_running_stats=True)
    (conv_spatial): Conv2dWithConstraint(8, 16, kernel_size=(22, 1), stride=(1, 1), groups=8, bias=False)
    (bnorm_1): BatchNorm2d(16, eps=0.001, momentum=0.01, affine=True, track_running_stats=True)
    (elu_1): Expression(expression=elu) 
    (pool_1): AvgPool2d(kernel_size=(1, 4), stride=(1, 4), padding=0)
    (drop_1): Dropout(p=0.25, inplace=False)
    (conv_separable_depth): Conv2d(16, 16, kernel_size=(1, 16), stride=(1, 1), padding=(0, 8), groups=16, bias=False)
    (conv_separable_point): Conv2d(16, 16, kernel_size=(1, 1), stride=(1, 1), bias=False)
    (bnorm_2): BatchNorm2d(16, eps=0.001, momentum=0.01, affine=True, track_running_stats=True)
    (elu_2): Expression(expression=elu) 
    (pool_2): AvgPool2d(kernel_size=(1, 8), stride=(1, 8), padding=0)
    (drop_2): Dropout(p=0.25, inplace=False)
    (conv_classifier): Conv2d(16, 4, kernel_size=(1, 35), stride=(1, 1))
    (softmax): LogSoftmax(dim=1)
    (permute_back): Expression(expression=_transpose_1_0) 
    (squeeze): Expression(expression=squeeze_final_output) 
  ),
)
<class 'braindecode.classifier.EEGClassifier'>[uninitialized](
  module=EEGNetv4(
    (ensuredims): Ensure4d()
    (dimshuffle): Expression(expression=_transpose_to_b_1_c_0) 
    (conv_temporal): Conv2d(1, 8, kernel_size=(1, 64), stride=(1, 1), padding=(0, 32), bias=False)
    (bnorm_temporal): BatchNorm2d(8, eps=0.001, momentum=0.01, affine=True, track_running_stats=True)
    (conv_spatial): Conv2dWithConstraint(8, 16, kernel_size=(22, 1), stride=(1, 1), groups=8, bias=False)
    (bnorm_1): BatchNorm2d(16, eps=0.001, momentum=0.01, affine=True, track_running_stats=True)
    (elu_1): Expression(expression=elu) 
    (pool_1): AvgPool2d(kernel_size=(1, 4), stride=(1, 4), padding=0)
    (drop_1): Dropout(p=0.25, inplace=False)
    (conv_separable_depth): Conv2d(16, 16, kernel_size=(1, 16), stride=(1, 1), padding=(0, 8), groups=16, bias=False)
    (conv_separable_point): Conv2d(16, 16, kernel_size=(1, 1), stride=(1, 1), bias=False)
    (bnorm_2): BatchNorm2d(16, eps=0.001, momentum=0.01, affine=True, track_running_stats=True)
    (elu_2): Expression(expression=elu) 
    (pool_2): AvgPool2d(kernel_size=(1, 8), stride=(1, 8), padding=0)
    (drop_2): Dropout(p=0.25, inplace=False)
    (conv_classifier): Conv2d(16, 4, kernel_size=(1, 35), stride=(1, 1))
    (softmax): LogSoftmax(dim=1)
    (permute_back): Expression(expression=_transpose_1_0) 
    (squeeze): Expression(expression=squeeze_final_output) 
  ),
)
<class 'braindecode.classifier.EEGClassifier'>[uninitialized](
  module=EEGNetv4(
    (ensuredims): Ensure4d()
    (dimshuffle): Expression(expression=_transpose_to_b_1_c_0) 
    (conv_temporal): Conv2d(1, 8, kernel_size=(1, 64), stride=(1, 1), padding=(0, 32), bias=False)
    (bnorm_temporal): BatchNorm2d(8, eps=0.001, momentum=0.01, affine=True, track_running_stats=True)
    (conv_spatial): Conv2dWithConstraint(8, 16, kernel_size=(22, 1), stride=(1, 1), groups=8, bias=False)
    (bnorm_1): BatchNorm2d(16, eps=0.001, momentum=0.01, affine=True, track_running_stats=True)
    (elu_1): Expression(expression=elu) 
    (pool_1): AvgPool2d(kernel_size=(1, 4), stride=(1, 4), padding=0)
    (drop_1): Dropout(p=0.25, inplace=False)
    (conv_separable_depth): Conv2d(16, 16, kernel_size=(1, 16), stride=(1, 1), padding=(0, 8), groups=16, bias=False)
    (conv_separable_point): Conv2d(16, 16, kernel_size=(1, 1), stride=(1, 1), bias=False)
    (bnorm_2): BatchNorm2d(16, eps=0.001, momentum=0.01, affine=True, track_running_stats=True)
    (elu_2): Expression(expression=elu) 
    (pool_2): AvgPool2d(kernel_size=(1, 8), stride=(1, 8), padding=0)
    (drop_2): Dropout(p=0.25, inplace=False)
    (conv_classifier): Conv2d(16, 4, kernel_size=(1, 35), stride=(1, 1))
    (softmax): LogSoftmax(dim=1)
    (permute_back): Expression(expression=_transpose_1_0) 
    (squeeze): Expression(expression=squeeze_final_output) 
  ),
)
<class 'braindecode.classifier.EEGClassifier'>[uninitialized](
  module=EEGNetv4(
    (ensuredims): Ensure4d()
    (dimshuffle): Expression(expression=_transpose_to_b_1_c_0) 
    (conv_temporal): Conv2d(1, 8, kernel_size=(1, 64), stride=(1, 1), padding=(0, 32), bias=False)
    (bnorm_temporal): BatchNorm2d(8, eps=0.001, momentum=0.01, affine=True, track_running_stats=True)
    (conv_spatial): Conv2dWithConstraint(8, 16, kernel_size=(22, 1), stride=(1, 1), groups=8, bias=False)
    (bnorm_1): BatchNorm2d(16, eps=0.001, momentum=0.01, affine=True, track_running_stats=True)
    (elu_1): Expression(expression=elu) 
    (pool_1): AvgPool2d(kernel_size=(1, 4), stride=(1, 4), padding=0)
    (drop_1): Dropout(p=0.25, inplace=False)
    (conv_separable_depth): Conv2d(16, 16, kernel_size=(1, 16), stride=(1, 1), padding=(0, 8), groups=16, bias=False)
    (conv_separable_point): Conv2d(16, 16, kernel_size=(1, 1), stride=(1, 1), bias=False)
    (bnorm_2): BatchNorm2d(16, eps=0.001, momentum=0.01, affine=True, track_running_stats=True)
    (elu_2): Expression(expression=elu) 
    (pool_2): AvgPool2d(kernel_size=(1, 8), stride=(1, 8), padding=0)
    (drop_2): Dropout(p=0.25, inplace=False)
    (conv_classifier): Conv2d(16, 4, kernel_size=(1, 35), stride=(1, 1))
    (softmax): LogSoftmax(dim=1)
    (permute_back): Expression(expression=_transpose_1_0) 
    (squeeze): Expression(expression=squeeze_final_output) 
  ),
)
<class 'braindecode.classifier.EEGClassifier'>[uninitialized](
  module=EEGNetv4(
    (ensuredims): Ensure4d()
    (dimshuffle): Expression(expression=_transpose_to_b_1_c_0) 
    (conv_temporal): Conv2d(1, 8, kernel_size=(1, 64), stride=(1, 1), padding=(0, 32), bias=False)
    (bnorm_temporal): BatchNorm2d(8, eps=0.001, momentum=0.01, affine=True, track_running_stats=True)
    (conv_spatial): Conv2dWithConstraint(8, 16, kernel_size=(22, 1), stride=(1, 1), groups=8, bias=False)
    (bnorm_1): BatchNorm2d(16, eps=0.001, momentum=0.01, affine=True, track_running_stats=True)
    (elu_1): Expression(expression=elu) 
    (pool_1): AvgPool2d(kernel_size=(1, 4), stride=(1, 4), padding=0)
    (drop_1): Dropout(p=0.25, inplace=False)
    (conv_separable_depth): Conv2d(16, 16, kernel_size=(1, 16), stride=(1, 1), padding=(0, 8), groups=16, bias=False)
    (conv_separable_point): Conv2d(16, 16, kernel_size=(1, 1), stride=(1, 1), bias=False)
    (bnorm_2): BatchNorm2d(16, eps=0.001, momentum=0.01, affine=True, track_running_stats=True)
    (elu_2): Expression(expression=elu) 
    (pool_2): AvgPool2d(kernel_size=(1, 8), stride=(1, 8), padding=0)
    (drop_2): Dropout(p=0.25, inplace=False)
    (conv_classifier): Conv2d(16, 4, kernel_size=(1, 35), stride=(1, 1))
    (softmax): LogSoftmax(dim=1)
    (permute_back): Expression(expression=_transpose_1_0) 
    (squeeze): Expression(expression=squeeze_final_output) 
  ),
)
<class 'braindecode.classifier.EEGClassifier'>[uninitialized](
  module=EEGNetv4(
    (ensuredims): Ensure4d()
    (dimshuffle): Expression(expression=_transpose_to_b_1_c_0) 
    (conv_temporal): Conv2d(1, 8, kernel_size=(1, 64), stride=(1, 1), padding=(0, 32), bias=False)
    (bnorm_temporal): BatchNorm2d(8, eps=0.001, momentum=0.01, affine=True, track_running_stats=True)
    (conv_spatial): Conv2dWithConstraint(8, 16, kernel_size=(22, 1), stride=(1, 1), groups=8, bias=False)
    (bnorm_1): BatchNorm2d(16, eps=0.001, momentum=0.01, affine=True, track_running_stats=True)
    (elu_1): Expression(expression=elu) 
    (pool_1): AvgPool2d(kernel_size=(1, 4), stride=(1, 4), padding=0)
    (drop_1): Dropout(p=0.25, inplace=False)
    (conv_separable_depth): Conv2d(16, 16, kernel_size=(1, 16), stride=(1, 1), padding=(0, 8), groups=16, bias=False)
    (conv_separable_point): Conv2d(16, 16, kernel_size=(1, 1), stride=(1, 1), bias=False)
    (bnorm_2): BatchNorm2d(16, eps=0.001, momentum=0.01, affine=True, track_running_stats=True)
    (elu_2): Expression(expression=elu) 
    (pool_2): AvgPool2d(kernel_size=(1, 8), stride=(1, 8), padding=0)
    (drop_2): Dropout(p=0.25, inplace=False)
    (conv_classifier): Conv2d(16, 4, kernel_size=(1, 35), stride=(1, 1))
    (softmax): LogSoftmax(dim=1)
    (permute_back): Expression(expression=_transpose_1_0) 
    (squeeze): Expression(expression=squeeze_final_output) 
  ),
)
<class 'braindecode.classifier.EEGClassifier'>[uninitialized](
  module=EEGNetv4(
    (ensuredims): Ensure4d()
    (dimshuffle): Expression(expression=_transpose_to_b_1_c_0) 
    (conv_temporal): Conv2d(1, 8, kernel_size=(1, 64), stride=(1, 1), padding=(0, 32), bias=False)
    (bnorm_temporal): BatchNorm2d(8, eps=0.001, momentum=0.01, affine=True, track_running_stats=True)
    (conv_spatial): Conv2dWithConstraint(8, 16, kernel_size=(22, 1), stride=(1, 1), groups=8, bias=False)
    (bnorm_1): BatchNorm2d(16, eps=0.001, momentum=0.01, affine=True, track_running_stats=True)
    (elu_1): Expression(expression=elu) 
    (pool_1): AvgPool2d(kernel_size=(1, 4), stride=(1, 4), padding=0)
    (drop_1): Dropout(p=0.25, inplace=False)
    (conv_separable_depth): Conv2d(16, 16, kernel_size=(1, 16), stride=(1, 1), padding=(0, 8), groups=16, bias=False)
    (conv_separable_point): Conv2d(16, 16, kernel_size=(1, 1), stride=(1, 1), bias=False)
    (bnorm_2): BatchNorm2d(16, eps=0.001, momentum=0.01, affine=True, track_running_stats=True)
    (elu_2): Expression(expression=elu) 
    (pool_2): AvgPool2d(kernel_size=(1, 8), stride=(1, 8), padding=0)
    (drop_2): Dropout(p=0.25, inplace=False)
    (conv_classifier): Conv2d(16, 4, kernel_size=(1, 35), stride=(1, 1))
    (softmax): LogSoftmax(dim=1)
    (permute_back): Expression(expression=_transpose_1_0) 
    (squeeze): Expression(expression=squeeze_final_output) 
  ),
)
<class 'braindecode.classifier.EEGClassifier'>[uninitialized](
  module=EEGNetv4(
    (ensuredims): Ensure4d()
    (dimshuffle): Expression(expression=_transpose_to_b_1_c_0) 
    (conv_temporal): Conv2d(1, 8, kernel_size=(1, 64), stride=(1, 1), padding=(0, 32), bias=False)
    (bnorm_temporal): BatchNorm2d(8, eps=0.001, momentum=0.01, affine=True, track_running_stats=True)
    (conv_spatial): Conv2dWithConstraint(8, 16, kernel_size=(22, 1), stride=(1, 1), groups=8, bias=False)
    (bnorm_1): BatchNorm2d(16, eps=0.001, momentum=0.01, affine=True, track_running_stats=True)
    (elu_1): Expression(expression=elu) 
    (pool_1): AvgPool2d(kernel_size=(1, 4), stride=(1, 4), padding=0)
    (drop_1): Dropout(p=0.25, inplace=False)
    (conv_separable_depth): Conv2d(16, 16, kernel_size=(1, 16), stride=(1, 1), padding=(0, 8), groups=16, bias=False)
    (conv_separable_point): Conv2d(16, 16, kernel_size=(1, 1), stride=(1, 1), bias=False)
    (bnorm_2): BatchNorm2d(16, eps=0.001, momentum=0.01, affine=True, track_running_stats=True)
    (elu_2): Expression(expression=elu) 
    (pool_2): AvgPool2d(kernel_size=(1, 8), stride=(1, 8), padding=0)
    (drop_2): Dropout(p=0.25, inplace=False)
    (conv_classifier): Conv2d(16, 4, kernel_size=(1, 35), stride=(1, 1))
    (softmax): LogSoftmax(dim=1)
    (permute_back): Expression(expression=_transpose_1_0) 
    (squeeze): Expression(expression=squeeze_final_output) 
  ),
)
<class 'braindecode.classifier.EEGClassifier'>[uninitialized](
  module=EEGNetv4(
    (ensuredims): Ensure4d()
    (dimshuffle): Expression(expression=_transpose_to_b_1_c_0) 
    (conv_temporal): Conv2d(1, 8, kernel_size=(1, 64), stride=(1, 1), padding=(0, 32), bias=False)
    (bnorm_temporal): BatchNorm2d(8, eps=0.001, momentum=0.01, affine=True, track_running_stats=True)
    (conv_spatial): Conv2dWithConstraint(8, 16, kernel_size=(22, 1), stride=(1, 1), groups=8, bias=False)
    (bnorm_1): BatchNorm2d(16, eps=0.001, momentum=0.01, affine=True, track_running_stats=True)
    (elu_1): Expression(expression=elu) 
    (pool_1): AvgPool2d(kernel_size=(1, 4), stride=(1, 4), padding=0)
    (drop_1): Dropout(p=0.25, inplace=False)
    (conv_separable_depth): Conv2d(16, 16, kernel_size=(1, 16), stride=(1, 1), padding=(0, 8), groups=16, bias=False)
    (conv_separable_point): Conv2d(16, 16, kernel_size=(1, 1), stride=(1, 1), bias=False)
    (bnorm_2): BatchNorm2d(16, eps=0.001, momentum=0.01, affine=True, track_running_stats=True)
    (elu_2): Expression(expression=elu) 
    (pool_2): AvgPool2d(kernel_size=(1, 8), stride=(1, 8), padding=0)
    (drop_2): Dropout(p=0.25, inplace=False)
    (conv_classifier): Conv2d(16, 4, kernel_size=(1, 35), stride=(1, 1))
    (softmax): LogSoftmax(dim=1)
    (permute_back): Expression(expression=_transpose_1_0) 
    (squeeze): Expression(expression=squeeze_final_output) 
  ),
)
<class 'braindecode.classifier.EEGClassifier'>[uninitialized](
  module=EEGNetv4(
    (ensuredims): Ensure4d()
    (dimshuffle): Expression(expression=_transpose_to_b_1_c_0) 
    (conv_temporal): Conv2d(1, 8, kernel_size=(1, 64), stride=(1, 1), padding=(0, 32), bias=False)
    (bnorm_temporal): BatchNorm2d(8, eps=0.001, momentum=0.01, affine=True, track_running_stats=True)
    (conv_spatial): Conv2dWithConstraint(8, 16, kernel_size=(22, 1), stride=(1, 1), groups=8, bias=False)
    (bnorm_1): BatchNorm2d(16, eps=0.001, momentum=0.01, affine=True, track_running_stats=True)
    (elu_1): Expression(expression=elu) 
    (pool_1): AvgPool2d(kernel_size=(1, 4), stride=(1, 4), padding=0)
    (drop_1): Dropout(p=0.25, inplace=False)
    (conv_separable_depth): Conv2d(16, 16, kernel_size=(1, 16), stride=(1, 1), padding=(0, 8), groups=16, bias=False)
    (conv_separable_point): Conv2d(16, 16, kernel_size=(1, 1), stride=(1, 1), bias=False)
    (bnorm_2): BatchNorm2d(16, eps=0.001, momentum=0.01, affine=True, track_running_stats=True)
    (elu_2): Expression(expression=elu) 
    (pool_2): AvgPool2d(kernel_size=(1, 8), stride=(1, 8), padding=0)
    (drop_2): Dropout(p=0.25, inplace=False)
    (conv_classifier): Conv2d(16, 4, kernel_size=(1, 35), stride=(1, 1))
    (softmax): LogSoftmax(dim=1)
    (permute_back): Expression(expression=_transpose_1_0) 
    (squeeze): Expression(expression=squeeze_final_output) 
  ),
)
<class 'braindecode.classifier.EEGClassifier'>[uninitialized](
  module=EEGNetv4(
    (ensuredims): Ensure4d()
    (dimshuffle): Expression(expression=_transpose_to_b_1_c_0) 
    (conv_temporal): Conv2d(1, 8, kernel_size=(1, 64), stride=(1, 1), padding=(0, 32), bias=False)
    (bnorm_temporal): BatchNorm2d(8, eps=0.001, momentum=0.01, affine=True, track_running_stats=True)
    (conv_spatial): Conv2dWithConstraint(8, 16, kernel_size=(22, 1), stride=(1, 1), groups=8, bias=False)
    (bnorm_1): BatchNorm2d(16, eps=0.001, momentum=0.01, affine=True, track_running_stats=True)
    (elu_1): Expression(expression=elu) 
    (pool_1): AvgPool2d(kernel_size=(1, 4), stride=(1, 4), padding=0)
    (drop_1): Dropout(p=0.25, inplace=False)
    (conv_separable_depth): Conv2d(16, 16, kernel_size=(1, 16), stride=(1, 1), padding=(0, 8), groups=16, bias=False)
    (conv_separable_point): Conv2d(16, 16, kernel_size=(1, 1), stride=(1, 1), bias=False)
    (bnorm_2): BatchNorm2d(16, eps=0.001, momentum=0.01, affine=True, track_running_stats=True)
    (elu_2): Expression(expression=elu) 
    (pool_2): AvgPool2d(kernel_size=(1, 8), stride=(1, 8), padding=0)
    (drop_2): Dropout(p=0.25, inplace=False)
    (conv_classifier): Conv2d(16, 4, kernel_size=(1, 35), stride=(1, 1))
    (softmax): LogSoftmax(dim=1)
    (permute_back): Expression(expression=_transpose_1_0) 
    (squeeze): Expression(expression=squeeze_final_output) 
  ),
)
